assets/detection.tflite (tflite, 295744 bytes, 55 tensors)

fuse_attr_56 i1 [64, 1, 1, 16]
0	0xf7	-9
1	0xd6	-42
2	0xd4	-44
3	0x7f	127
4	0x02	2
5	0x0b	11
6	0xe1	-31
7	0xf6	-10
8	0x29	41
9	0xe1	-31
10	0xdb	-37
11	0xe3	-29
12	0xfd	-3
13	0xf1	-15
14	0xf4	-12
15	0xbb	-69
16	0xd9	-39
17	0x38	56
18	0xed	-19
19	0xbd	-67
20	0x28	40
21	0x20	32
22	0x43	67
23	0xe3	-29
24	0x26	38
25	0x43	67
26	0xf9	-7
27	0x7f	127
28	0x33	51
29	0xcd	-51
30	0x47	71
31	0xc9	-55
32	0x23	35
33	0xc8	-56
34	0xee	-18
35	0x19	25
36	0x20	32
37	0xf6	-10
38	0x48	72
39	0xe4	-28
40	0xe4	-28
41	0xee	-18
42	0xec	-20
43	0x81	-127
44	0xe2	-30
45	0x0c	12
46	0xde	-34
47	0x26	38
48	0xf7	-9
49	0xb7	-73
50	0x25	37
51	0xb5	-75
52	0xd2	-46
53	0xe2	-30
54	0x2a	42
55	0x39	57
56	0x7f	127
57	0xce	-50
58	0xc5	-59
59	0xc6	-58
60	0x14	20
61	0x11	17
62	0x33	51
63	0x22	34
64	0x06	6
65	0xe5	-27
66	0x12	18
67	0x48	72
68	0x05	5
69	0x15	21
70	0xfa	-6
71	0xd6	-42
72	0x39	57
73	0xf7	-9
74	0xe3	-29
75	0x7f	127
76	0x0f	15
77	0x0e	14
78	0x07	7
79	0xfe	-2
80	0x30	48
81	0xa0	-96
82	0xbe	-66
83	0x7e	126
84	0xf2	-14
85	0xf2	-14
86	0xd4	-44
87	0xae	-82
88	0x25	37
89	0xc1	-63
90	0x8b	-117
91	0x87	-121
92	0xf8	-8
93	0x81	-127
94	0x25	37
95	0xe9	-23
96	0x2a	42
97	0xaf	-81
98	0xc3	-61
99	0x6f	111
100	0x0d	13
101	0xd9	-39
102	0x9a	-102
103	0xdf	-33
104	0x19	25
105	0xcb	-53
106	0xb7	-73
107	0xa7	-89
108	0xe1	-31
109	0x81	-127
110	0x16	22
111	0xbf	-65
112	0xfa	-6
113	0x7f	127
114	0x23	35
115	0xc7	-57
116	0xd8	-40
117	0xdc	-36
118	0xe9	-23
119	0xdc	-36
120	0xf2	-14
121	0xd5	-43
122	0x1c	28
123	0xc4	-60
124	0xc5	-59
125	0x1a	26
126	0xc8	-56
127	0xe2	-30
128	0xdf	-33
129	0x48	72
130	0x09	9
131	0xdb	-37
132	0x37	55
133	0x02	2
134	0x03	3
135	0xe0	-32
136	0xf9	-7
137	0x04	4
138	0x81	-127
139	0xfd	-3
140	0x34	52
141	0xfb	-5
142	0xe9	-23
143	0x2a	42
144	0x5d	93
145	0x35	53
146	0xe4	-28
147	0x9a	-102
148	0x0e	14
149	0xdb	-37
150	0x31	49
151	0x07	7
152	0x07	7
153	0x49	73
154	0x4a	74
155	0x7f	127
156	0xe3	-29
157	0x24	36
158	0xfc	-4
159	0x38	56
160	0xf7	-9
161	0xfc	-4
162	0xec	-20
163	0x7f	127
164	0x18	24
165	0x10	16
166	0xdb	-37
167	0xd9	-39
168	0xf4	-12
169	0x01	1
170	0x29	41
171	0x43	67
172	0xfe	-2
173	0xe2	-30
174	0xcb	-53
175	0x09	9
176	0x8d	-115
177	0x15	21
178	0xfe	-2
179	0x3d	61
180	0xea	-22
181	0x2d	45
182	0x7f	127
183	0x0c	12
184	0xf5	-11
185	0xe9	-23
186	0x1c	28
187	0xc6	-58
188	0x06	6
189	0x13	19
190	0x27	39
191	0x09	9
192	0xdb	-37
193	0x81	-127
194	0xf0	-16
195	0xae	-82
196	0x15	21
197	0xea	-22
198	0x07	7
199	0xf0	-16
200	0xf1	-15
201	0x1d	29
202	0xdb	-37
203	0xd8	-40
204	0x2c	44
205	0xef	-17
206	0x0b	11
207	0xfc	-4
208	0x1d	29
209	0x17	23
210	0xbe	-66
211	0xeb	-21
212	0x05	5
213	0x6d	109
214	0xdc	-36
215	0x81	-127
216	0x23	35
217	0xf8	-8
218	0x1a	26
219	0x00	0
220	0x1b	27
221	0xef	-17
222	0x0b	11
223	0x14	20
224	0x78	120
225	0x08	8
226	0x1c	28
227	0x81	-127
228	0x01	1
229	0xf3	-13
230	0xf9	-7
231	0x03	3
232	0xde	-34
233	0x12	18
234	0xee	-18
235	0xfb	-5
236	0xc0	-64
237	0xaa	-86
238	0xf4	-12
239	0x38	56
240	0x10	16
241	0x81	-127
242	0x0f	15
243	0xf9	-7
244	0xea	-22
245	0x06	6
246	0x09	9
247	0xeb	-21
248	0xf5	-11
249	0xf7	-9
250	0x7d	125
251	0x23	35
252	0xaf	-81
253	0x2a	42
254	0x34	52
255	0xe0	-32

fuse_attr_80 i1 [32, 1, 1, 96]
0	0xd5	-43
1	0x2a	42
2	0xfb	-5
3	0x35	53
4	0xc4	-60
5	0x0e	14
6	0xe9	-23
7	0xe5	-27
8	0x13	19
9	0xea	-22
10	0xf1	-15
11	0xf6	-10
12	0x23	35
13	0xd1	-47
14	0xfb	-5
15	0xd6	-42
16	0xe8	-24
17	0xb6	-74
18	0xff	-1
19	0x0f	15
20	0x28	40
21	0xe7	-25
22	0xf3	-13
23	0x21	33
24	0x09	9
25	0x02	2
26	0x04	4
27	0x32	50
28	0xcd	-51
29	0xf0	-16
30	0xf8	-8
31	0x1d	29
32	0xf1	-15
33	0x50	80
34	0xc5	-59
35	0xc4	-60
36	0x1b	27
37	0xd5	-43
38	0x81	-127
39	0xe6	-26
40	0x35	53
41	0xf2	-14
42	0x08	8
43	0x45	69
44	0x26	38
45	0xeb	-21
46	0xfc	-4
47	0x10	16
48	0xfe	-2
49	0x03	3
50	0x18	24
51	0xf9	-7
52	0x27	39
53	0x38	56
54	0xeb	-21
55	0xce	-50
56	0x20	32
57	0xc8	-56
58	0xce	-50
59	0x3c	60
60	0x01	1
61	0xc9	-55
62	0xda	-38
63	0xd1	-47
64	0x23	35
65	0xf9	-7
66	0x10	16
67	0xf5	-11
68	0x02	2
69	0xd8	-40
70	0x24	36
71	0xea	-22
72	0x00	0
73	0x1a	26
74	0xe9	-23
75	0xe6	-26
76	0x13	19
77	0xed	-19
78	0x00	0
79	0x2c	44
80	0xdc	-36
81	0x01	1
82	0xfc	-4
83	0x0b	11
84	0x2a	42
85	0xf6	-10
86	0x06	6
87	0x2b	43
88	0xe1	-31
89	0xed	-19
90	0xe6	-26
91	0x32	50
92	0xfc	-4
93	0xd5	-43
94	0x14	20
95	0xd4	-44
96	0x0d	13
97	0x4f	79
98	0x09	9
99	0x10	16
100	0xb1	-79
101	0x06	6
102	0x0a	10
103	0x3b	59
104	0x3a	58
105	0xe4	-28
106	0xeb	-21
107	0xd4	-44
108	0x14	20
109	0x20	32
110	0xf3	-13
111	0x5a	90
112	0x9d	-99
113	0x5c	92
114	0xb7	-73
115	0xbe	-66
116	0x7e	126
117	0x6f	111
118	0xda	-38
119	0xc4	-60
120	0xf9	-7
121	0xcc	-52
122	0xf5	-11
123	0x12	18
124	0x26	38
125	0xd5	-43
126	0x3d	61
127	0x06	6
128	0xe4	-28
129	0x70	112
130	0x01	1
131	0xd2	-46
132	0xfc	-4
133	0xe0	-32
134	0x7f	127
135	0xfc	-4
136	0x03	3
137	0xf4	-12
138	0x42	66
139	0x24	36
140	0xff	-1
141	0xed	-19
142	0x15	21
143	0xf8	-8
144	0x19	25
145	0x04	4
146	0x27	39
147	0x07	7
148	0x06	6
149	0x3e	62
150	0xcf	-49
151	0xc0	-64
152	0x4c	76
153	0xe0	-32
154	0xf7	-9
155	0x55	85
156	0x19	25
157	0x34	52
158	0x02	2
159	0xe9	-23
160	0x20	32
161	0xfb	-5
162	0x42	66
163	0xd0	-48
164	0x1d	29
165	0x00	0
166	0x12	18
167	0xfe	-2
168	0x05	5
169	0x1d	29
170	0xd8	-40
171	0xfc	-4
172	0xf2	-14
173	0x34	52
174	0x1e	30
175	0xf7	-9
176	0x01	1
177	0x30	48
178	0x15	21
179	0x14	20
180	0x4b	75
181	0x19	25
182	0xe8	-24
183	0x40	64
184	0xee	-18
185	0x0b	11
186	0xe3	-29
187	0x25	37
188	0x52	82
189	0x1c	28
190	0x00	0
191	0x23	35
192	0xf9	-7
193	0x13	19
194	0xdf	-33
195	0xe4	-28
196	0xd3	-45
197	0x16	22
198	0xd9	-39
199	0xfa	-6
200	0xe3	-29
201	0xf5	-11
202	0x26	38
203	0x2a	42
204	0x0f	15
205	0xed	-19
206	0x03	3
207	0xda	-38
208	0x09	9
209	0xf3	-13
210	0x1c	28
211	0x49	73
212	0xd2	-46
213	0x22	34
214	0xd3	-45
215	0x11	17
216	0x21	33
217	0x35	53
218	0x21	33
219	0x21	33
220	0xfa	-6
221	0xb2	-78
222	0xe7	-25
223	0x81	-127
224	0x05	5
225	0x99	-103
226	0xf8	-8
227	0x0c	12
228	0x2f	47
229	0xc2	-62
230	0xc9	-55
231	0x25	37
232	0x16	22
233	0xde	-34
234	0xc7	-57
235	0xe9	-23
236	0x05	5
237	0x5c	92
238	0xec	-20
239	0x37	55
240	0xff	-1
241	0x08	8
242	0xfd	-3
243	0xfb	-5
244	0xdf	-33
245	0x09	9
246	0xd9	-39
247	0xf2	-14
248	0xf5	-11
249	0x22	34
250	0xf6	-10
251	0xe3	-29
252	0x2b	43
253	0x13	19
254	0xc4	-60
255	0x52	82

fuse_attr_90 i1 [64, 1, 1, 32]
0	0x54	84
1	0xf2	-14
2	0xcc	-52
3	0xd1	-47
4	0xc8	-56
5	0xf6	-10
6	0xf7	-9
7	0xfa	-6
8	0x7f	127
9	0xb1	-79
10	0xfc	-4
11	0xe1	-31
12	0x3f	63
13	0xf8	-8
14	0x08	8
15	0xc1	-63
16	0x64	100
17	0x16	22
18	0x50	80
19	0x10	16
20	0x2c	44
21	0x36	54
22	0x37	55
23	0xf0	-16
24	0x79	121
25	0x04	4
26	0x1a	26
27	0x1a	26
28	0x0a	10
29	0x6e	110
30	0xfd	-3
31	0xff	-1
32	0x45	69
33	0xdf	-33
34	0xf4	-12
35	0xda	-38
36	0x9e	-98
37	0x3c	60
38	0xff	-1
39	0x42	66
40	0xd4	-44
41	0x60	96
42	0xf0	-16
43	0xc5	-59
44	0x60	96
45	0x3b	59
46	0xea	-22
47	0x01	1
48	0xd3	-45
49	0xa4	-92
50	0xe2	-30
51	0x81	-127
52	0x12	18
53	0x32	50
54	0x1f	31
55	0x05	5
56	0x4a	74
57	0x8a	-118
58	0x5a	90
59	0x1b	27
60	0x0d	13
61	0x4c	76
62	0xde	-34
63	0x27	39
64	0xf3	-13
65	0xf3	-13
66	0x14	20
67	0xfa	-6
68	0xc1	-63
69	0x53	83
70	0x40	64
71	0xfa	-6
72	0x15	21
73	0xfe	-2
74	0xf9	-7
75	0x3b	59
76	0xef	-17
77	0xca	-54
78	0x7f	127
79	0x22	34
80	0x06	6
81	0xf7	-9
82	0x12	18
83	0x35	53
84	0x05	5
85	0xe5	-27
86	0xaa	-86
87	0xd3	-45
88	0x3c	60
89	0x16	22
90	0x00	0
91	0x00	0
92	0xd7	-41
93	0xa6	-90
94	0x24	36
95	0xe5	-27
96	0x0b	11
97	0xae	-82
98	0x1d	29
99	0x27	39
100	0xbd	-67
101	0x00	0
102	0xdb	-37
103	0xec	-20
104	0xe5	-27
105	0x0e	14
106	0xea	-22
107	0x1f	31
108	0x62	98
109	0x04	4
110	0x11	17
111	0x81	-127
112	0x0f	15
113	0xc5	-59
114	0xe0	-32
115	0xf0	-16
116	0xf1	-15
117	0x2b	43
118	0xcf	-49
119	0x11	17
120	0x77	119
121	0xda	-38
122	0xea	-22
123	0xf0	-16
124	0xde	-34
125	0x1f	31
126	0x59	89
127	0x0a	10
128	0xc9	-55
129	0x19	25
130	0x36	54
131	0xc1	-63
132	0xde	-34
133	0x81	-127
134	0x9e	-98
135	0x3c	60
136	0xfc	-4
137	0x2c	44
138	0xf2	-14
139	0x2a	42
140	0xf9	-7
141	0x11	17
142	0x73	115
143	0xe7	-25
144	0x26	38
145	0x0d	13
146	0x43	67
147	0x3a	58
148	0xc7	-57
149	0x64	100
150	0xc6	-58
151	0xe2	-30
152	0x07	7
153	0xef	-17
154	0x3a	58
155	0xe4	-28
156	0x30	48
157	0x13	19
158	0x50	80
159	0xf0	-16
160	0x0d	13
161	0x39	57
162	0x8b	-117
163	0x7f	127
164	0xde	-34
165	0x53	83
166	0x38	56
167	0xfb	-5
168	0xc4	-60
169	0x24	36
170	0xff	-1
171	0xe2	-30
172	0x46	70
173	0xb9	-71
174	0x56	86
175	0x9c	-100
176	0xb0	-80
177	0xff	-1
178	0xdb	-37
179	0xd6	-42
180	0xf9	-7
181	0x11	17
182	0x00	0
183	0x18	24
184	0x76	118
185	0xd0	-48
186	0xfa	-6
187	0xc7	-57
188	0xc2	-62
189	0xf6	-10
190	0xa1	-95
191	0xee	-18
192	0x4c	76
193	0xfd	-3
194	0xef	-17
195	0x9f	-97
196	0xde	-34
197	0xbd	-67
198	0x7f	127
199	0x0e	14
200	0xa7	-89
201	0x08	8
202	0xef	-17
203	0x46	70
204	0xcc	-52
205	0x15	21
206	0xf8	-8
207	0xd5	-43
208	0x9b	-101
209	0xd1	-47
210	0x1f	31
211	0xc7	-57
212	0xd0	-48
213	0xd7	-41
214	0xb9	-71
215	0xee	-18
216	0x38	56
217	0xd3	-45
218	0x28	40
219	0x1f	31
220	0x51	81
221	0xfd	-3
222	0x1b	27
223	0xe5	-27
224	0xde	-34
225	0x46	70
226	0xed	-19
227	0x39	57
228	0x1e	30
229	0x12	18
230	0xd0	-48
231	0xc9	-55
232	0xc2	-62
233	0x16	22
234	0x57	87
235	0x9e	-98
236	0xb9	-71
237	0x38	56
238	0x03	3
239	0xdd	-35
240	0xbe	-66
241	0x01	1
242	0xed	-19
243	0xb4	-76
244	0x28	40
245	0x3e	62
246	0xe8	-24
247	0x05	5
248	0x7f	127
249	0xa8	-88
250	0x16	22
251	0x09	9
252	0xb9	-71
253	0xb9	-71
254	0x2f	47
255	0x0b	11

fuse_attr_73 i1 [48, 1, 1, 192]
0	0xc7	-57
1	0xda	-38
2	0x11	17
3	0xee	-18
4	0x0a	10
5	0xd5	-43
6	0x0b	11
7	0x30	48
8	0x0d	13
9	0xd0	-48
10	0x2d	45
11	0x17	23
12	0x08	8
13	0x09	9
14	0xed	-19
15	0xe0	-32
16	0xe1	-31
17	0xe5	-27
18	0x0f	15
19	0x40	64
20	0x0b	11
21	0xf7	-9
22	0xee	-18
23	0xd6	-42
24	0xcb	-53
25	0x32	50
26	0x10	16
27	0x1c	28
28	0x02	2
29	0x02	2
30	0xed	-19
31	0xef	-17
32	0xbb	-69
33	0x00	0
34	0xd2	-46
35	0xe3	-29
36	0x34	52
37	0x0f	15
38	0xca	-54
39	0x0a	10
40	0x1d	29
41	0x1b	27
42	0x7f	127
43	0x12	18
44	0x46	70
45	0xbb	-69
46	0xe6	-26
47	0xf0	-16
48	0xe4	-28
49	0xc8	-56
50	0x0d	13
51	0xea	-22
52	0xe2	-30
53	0xd0	-48
54	0x0b	11
55	0xf4	-12
56	0xd7	-41
57	0x1a	26
58	0x16	22
59	0xbc	-68
60	0xa3	-93
61	0xce	-50
62	0xfe	-2
63	0x23	35
64	0xea	-22
65	0xd7	-41
66	0x3e	62
67	0x36	54
68	0x18	24
69	0x47	71
70	0x24	36
71	0xc2	-62
72	0xd0	-48
73	0xfe	-2
74	0x2a	42
75	0xd7	-41
76	0x45	69
77	0x03	3
78	0x2f	47
79	0x57	87
80	0xf1	-15
81	0xe6	-26
82	0xe5	-27
83	0xf0	-16
84	0xcd	-51
85	0xd1	-47
86	0xe5	-27
87	0x2b	43
88	0x00	0
89	0x17	23
90	0x3d	61
91	0x34	52
92	0x05	5
93	0xe6	-26
94	0xcc	-52
95	0x05	5
96	0xe8	-24
97	0xf7	-9
98	0x10	16
99	0xe6	-26
100	0x09	9
101	0xdd	-35
102	0x1b	27
103	0xe6	-26
104	0x24	36
105	0xdb	-37
106	0xfd	-3
107	0xd1	-47
108	0xed	-19
109	0xd8	-40
110	0xe1	-31
111	0xf3	-13
112	0xd8	-40
113	0x1c	28
114	0xff	-1
115	0xdf	-33
116	0xda	-38
117	0x05	5
118	0x10	16
119	0xf1	-15
120	0x11	17
121	0xfc	-4
122	0xb7	-73
123	0x4d	77
124	0xc3	-61
125	0x1a	26
126	0x2a	42
127	0x00	0
128	0x1d	29
129	0xef	-17
130	0xfc	-4
131	0x19	25
132	0xf7	-9
133	0x03	3
134	0xd7	-41
135	0xc6	-58
136	0xd9	-39
137	0x39	57
138	0xef	-17
139	0xe6	-26
140	0xfd	-3
141	0xf5	-11
142	0x0a	10
143	0x17	23
144	0x0c	12
145	0xeb	-21
146	0xc4	-60
147	0x2f	47
148	0x14	20
149	0x12	18
150	0x18	24
151	0x29	41
152	0x09	9
153	0x08	8
154	0xd3	-45
155	0x16	22
156	0x29	41
157	0x3c	60
158	0x20	32
159	0x9f	-97
160	0xfc	-4
161	0x1a	26
162	0x02	2
163	0xce	-50
164	0xdc	-36
165	0x10	16
166	0x05	5
167	0xf8	-8
168	0xee	-18
169	0xf1	-15
170	0x46	70
171	0xe7	-25
172	0x10	16
173	0x13	19
174	0x13	19
175	0xed	-19
176	0xde	-34
177	0xdb	-37
178	0x06	6
179	0xe7	-25
180	0xf9	-7
181	0x17	23
182	0xe1	-31
183	0x02	2
184	0xe9	-23
185	0x18	24
186	0x14	20
187	0x06	6
188	0xf4	-12
189	0xfd	-3
190	0xba	-70
191	0x08	8
192	0x81	-127
193	0x0c	12
194	0x5c	92
195	0xca	-54
196	0x03	3
197	0xe8	-24
198	0xd0	-48
199	0xeb	-21
200	0xd1	-47
201	0x0e	14
202	0xec	-20
203	0xec	-20
204	0xf0	-16
205	0x0f	15
206	0xcd	-51
207	0x2b	43
208	0xe9	-23
209	0x04	4
210	0xa0	-96
211	0xfd	-3
212	0xe8	-24
213	0xea	-22
214	0xee	-18
215	0xef	-17
216	0x13	19
217	0x82	-126
218	0x18	24
219	0x42	66
220	0x46	70
221	0x20	32
222	0x65	101
223	0x71	113
224	0xc7	-57
225	0x00	0
226	0xf7	-9
227	0x01	1
228	0xeb	-21
229	0x1f	31
230	0xaf	-81
231	0xb7	-73
232	0xea	-22
233	0xd1	-47
234	0x38	56
235	0x03	3
236	0xf6	-10
237	0xe3	-29
238	0xcc	-52
239	0xfe	-2
240	0xea	-22
241	0x25	37
242	0xfb	-5
243	0x4d	77
244	0x29	41
245	0xcd	-51
246	0x03	3
247	0x65	101
248	0x95	-107
249	0xe2	-30
250	0xce	-50
251	0x44	68
252	0x17	23
253	0x11	17
254	0xe7	-25
255	0x18	24

fuse_attr_54 i1 [1, 3, 3, 32]
0	0x1e	30
1	0x15	21
2	0x26	38
3	0x21	33
4	0xed	-19
5	0xe5	-27
6	0x17	23
7	0xe6	-26
8	0xd0	-48
9	0x3b	59
10	0xe0	-32
11	0x25	37
12	0x1e	30
13	0x29	41
14	0x23	35
15	0x17	23
16	0x17	23
17	0xe8	-24
18	0x29	41
19	0x1c	28
20	0x21	33
21	0xde	-34
22	0x1d	29
23	0x25	37
24	0xcf	-49
25	0x1f	31
26	0x25	37
27	0x22	34
28	0x42	66
29	0xe9	-23
30	0xe7	-25
31	0xeb	-21
32	0x31	49
33	0x4f	79
34	0x43	67
35	0x45	69
36	0xcc	-52
37	0xc9	-55
38	0x38	56
39	0xbd	-67
40	0xb4	-76
41	0x4b	75
42	0xc1	-63
43	0x4b	75
44	0x3e	62
45	0x31	49
46	0x39	57
47	0x55	85
48	0x38	56
49	0xc8	-56
50	0x42	66
51	0x36	54
52	0x46	70
53	0xb7	-73
54	0x36	54
55	0x43	67
56	0xb2	-78
57	0x3d	61
58	0x31	49
59	0x3e	62
60	0x7c	124
61	0xbf	-65
62	0xc0	-64
63	0xc7	-57
64	0x07	7
65	0x33	51
66	0x22	34
67	0x2e	46
68	0xdd	-35
69	0xe1	-31
70	0x27	39
71	0xd0	-48
72	0xd7	-41
73	0x17	23
74	0xdc	-36
75	0x2d	45
76	0x20	32
77	0x26	38
78	0x17	23
79	0x3c	60
80	0x2c	44
81	0xd3	-45
82	0x22	34
83	0x1f	31
84	0x2e	46
85	0xd6	-42
86	0x1c	28
87	0x26	38
88	0xc6	-58
89	0x1f	31
90	0x13	19
91	0x21	33
92	0x72	114
93	0xce	-50
94	0xd0	-48
95	0xd6	-42
96	0x51	81
97	0x2e	46
98	0x51	81
99	0x41	65
100	0xc9	-55
101	0xbf	-65
102	0x42	66
103	0xbd	-67
104	0xaf	-81
105	0x4d	77
106	0xc4	-60
107	0x3f	63
108	0x49	73
109	0x6d	109
110	0x4f	79
111	0x2e	46
112	0x3a	58
113	0xcf	-49
114	0x44	68
115	0x3e	62
116	0x3c	60
117	0xc0	-64
118	0x49	73
119	0x3b	59
120	0xae	-82
121	0x3e	62
122	0x4d	77
123	0x3d	61
124	0x3b	59
125	0xca	-54
126	0xc3	-61
127	0xc8	-56
128	0x7f	127
129	0x7f	127
130	0x7f	127
131	0x7f	127
132	0x81	-127
133	0x81	-127
134	0x7f	127
135	0x81	-127
136	0x81	-127
137	0x7f	127
138	0x81	-127
139	0x7f	127
140	0x7f	127
141	0x7f	127
142	0x7f	127
143	0x7f	127
144	0x7f	127
145	0x8b	-117
146	0x7f	127
147	0x7f	127
148	0x7f	127
149	0x81	-127
150	0x7f	127
151	0x7f	127
152	0x81	-127
153	0x7f	127
154	0x7f	127
155	0x7f	127
156	0x7f	127
157	0x81	-127
158	0x81	-127
159	0x81	-127
160	0x36	54
161	0x5a	90
162	0x38	56
163	0x55	85
164	0xa5	-91
165	0xba	-70
166	0x49	73
167	0xb2	-78
168	0xa8	-88
169	0x44	68
170	0xb0	-80
171	0x53	83
172	0x50	80
173	0x63	99
174	0x40	64
175	0x57	87
176	0x62	98
177	0x81	-127
178	0x4f	79
179	0x53	83
180	0x57	87
181	0xad	-83
182	0x45	69
183	0x51	81
184	0x9d	-99
185	0x53	83
186	0x48	72
187	0x47	71
188	0x7c	124
189	0xa5	-91
190	0xb0	-80
191	0xa9	-87
192	0x36	54
193	0x1e	30
194	0x3b	59
195	0x22	34
196	0xd4	-44
197	0xc9	-55
198	0x31	49
199	0xda	-38
200	0xda	-38
201	0x1c	28
202	0xde	-34
203	0x21	33
204	0x31	49
205	0x4c	76
206	0x36	54
207	0x17	23
208	0x27	39
209	0xda	-38
210	0x28	40
211	0x29	41
212	0x1b	27
213	0xd6	-42
214	0x3b	59
215	0x1e	30
216	0xcf	-49
217	0x20	32
218	0x2a	42
219	0x27	39
220	0x00	0
221	0xd5	-43
222	0xd9	-39
223	0xd8	-40
224	0x59	89
225	0x3d	61
226	0x53	83
227	0x4c	76
228	0xa2	-94
229	0x9d	-99
230	0x59	89
231	0xbb	-69
232	0xac	-84
233	0x43	67
234	0xae	-82
235	0x42	66
236	0x53	83
237	0x57	87
238	0x59	89
239	0x32	50
240	0x4c	76
241	0x9b	-101
242	0x4f	79
243	0x59	89
244	0x45	69
245	0xb3	-77
246	0x65	101
247	0x48	72
248	0x9e	-98
249	0x50	80
250	0x5c	92
251	0x50	80
252	0x07	7
253	0xa9	-87
254	0xb9	-71
255	0xb0	-80

fuse_attr_70 i1 [48, 1, 1, 128]
0	0xd0	-48
1	0xfa	-6
2	0x17	23
3	0x60	96
4	0xea	-22
5	0xe2	-30
6	0x4e	78
7	0x63	99
8	0xbd	-67
9	0x12	18
10	0x18	24
11	0xb7	-73
12	0xf0	-16
13	0xe2	-30
14	0xe2	-30
15	0x26	38
16	0x0f	15
17	0x3f	63
18	0xfd	-3
19	0xfa	-6
20	0xe7	-25
21	0xb0	-80
22	0x03	3
23	0x0d	13
24	0x7f	127
25	0x0a	10
26	0xd8	-40
27	0xf5	-11
28	0xf1	-15
29	0x13	19
30	0xfc	-4
31	0xc9	-55
32	0x05	5
33	0x3d	61
34	0xf4	-12
35	0xfc	-4
36	0x05	5
37	0xfd	-3
38	0xca	-54
39	0xbf	-65
40	0x52	82
41	0x3e	62
42	0x28	40
43	0x08	8
44	0x00	0
45	0xdc	-36
46	0x1b	27
47	0x0f	15
48	0xb6	-74
49	0x0c	12
50	0xc0	-64
51	0x0d	13
52	0xda	-38
53	0xe6	-26
54	0xf0	-16
55	0xea	-22
56	0xe8	-24
57	0xf2	-14
58	0x12	18
59	0x02	2
60	0xec	-20
61	0xff	-1
62	0x20	32
63	0x16	22
64	0x08	8
65	0x07	7
66	0x1f	31
67	0x19	25
68	0xcd	-51
69	0xef	-17
70	0x03	3
71	0xe7	-25
72	0x0b	11
73	0xd3	-45
74	0x37	55
75	0x00	0
76	0x0b	11
77	0xd8	-40
78	0xe1	-31
79	0x00	0
80	0x05	5
81	0x07	7
82	0x25	37
83	0xa9	-87
84	0x28	40
85	0x21	33
86	0xe8	-24
87	0xed	-19
88	0xf0	-16
89	0x0d	13
90	0xdf	-33
91	0x01	1
92	0xdb	-37
93	0xf5	-11
94	0xef	-17
95	0x1c	28
96	0x04	4
97	0xff	-1
98	0x0c	12
99	0xd1	-47
100	0x30	48
101	0x1f	31
102	0xd0	-48
103	0xf2	-14
104	0xcd	-51
105	0x06	6
106	0x15	21
107	0x1e	30
108	0x15	21
109	0x17	23
110	0x0d	13
111	0x13	19
112	0xbd	-67
113	0x0b	11
114	0xd7	-41
115	0xd8	-40
116	0xed	-19
117	0xf6	-10
118	0xe4	-28
119	0xde	-34
120	0x21	33
121	0x1c	28
122	0xe1	-31
123	0x19	25
124	0x09	9
125	0x0c	12
126	0x00	0
127	0x12	18
128	0xfe	-2
129	0xda	-38
130	0x03	3
131	0x1a	26
132	0x4a	74
133	0xde	-34
134	0x38	56
135	0xf5	-11
136	0x31	49
137	0x12	18
138	0x1f	31
139	0x01	1
140	0x17	23
141	0xd9	-39
142	0xdf	-33
143	0xef	-17
144	0x01	1
145	0xfe	-2
146	0x00	0
147	0x31	49
148	0xf3	-13
149	0x0f	15
150	0x06	6
151	0x02	2
152	0xdb	-37
153	0xfa	-6
154	0xe9	-23
155	0xed	-19
156	0x30	48
157	0xf2	-14
158	0x14	20
159	0xf5	-11
160	0xed	-19
161	0xe6	-26
162	0x05	5
163	0x09	9
164	0xde	-34
165	0xfe	-2
166	0x2c	44
167	0xf8	-8
168	0x01	1
169	0x1a	26
170	0x27	39
171	0x0a	10
172	0xc6	-58
173	0xf3	-13
174	0xe1	-31
175	0x0d	13
176	0xdf	-33
177	0xe4	-28
178	0x05	5
179	0xf3	-13
180	0x37	55
181	0xf5	-11
182	0x2b	43
183	0xda	-38
184	0xe6	-26
185	0x03	3
186	0xf0	-16
187	0xd5	-43
188	0xe4	-28
189	0xf7	-9
190	0x4a	74
191	0x07	7
192	0x0f	15
193	0xf0	-16
194	0x03	3
195	0xd8	-40
196	0xea	-22
197	0xee	-18
198	0x19	25
199	0xff	-1
200	0x01	1
201	0xfb	-5
202	0x81	-127
203	0x0f	15
204	0xe0	-32
205	0xd6	-42
206	0xfd	-3
207	0x3d	61
208	0x11	17
209	0x23	35
210	0x17	23
211	0x03	3
212	0x0b	11
213	0x28	40
214	0xea	-22
215	0x35	53
216	0x10	16
217	0x1a	26
218	0x10	16
219	0xf6	-10
220	0x14	20
221	0xe5	-27
222	0x13	19
223	0x0b	11
224	0xfa	-6
225	0xe1	-31
226	0xf8	-8
227	0xe8	-24
228	0x0f	15
229	0xd0	-48
230	0x16	22
231	0xf9	-7
232	0xe0	-32
233	0x22	34
234	0xe3	-29
235	0x04	4
236	0xeb	-21
237	0xe0	-32
238	0xd9	-39
239	0x31	49
240	0x15	21
241	0x09	9
242	0xbd	-67
243	0x00	0
244	0xe2	-30
245	0xfa	-6
246	0xd5	-43
247	0xed	-19
248	0x2e	46
249	0xe9	-23
250	0x11	17
251	0x0e	14
252	0x06	6
253	0x0a	10
254	0xfe	-2
255	0xed	-19

fuse_attr_92 i1 [32, 1, 1, 64]
0	0xb7	-73
1	0x3e	62
2	0x81	-127
3	0xfd	-3
4	0x39	57
5	0xfb	-5
6	0x16	22
7	0xf1	-15
8	0x21	33
9	0xde	-34
10	0x17	23
11	0xd7	-41
12	0xf9	-7
13	0xfa	-6
14	0x4b	75
15	0x44	68
16	0xea	-22
17	0xf0	-16
18	0xf2	-14
19	0xe0	-32
20	0xf8	-8
21	0x37	55
22	0x5d	93
23	0xdb	-37
24	0xd3	-45
25	0xc1	-63
26	0x0f	15
27	0xf5	-11
28	0xfe	-2
29	0xe6	-26
30	0xeb	-21
31	0xee	-18
32	0x27	39
33	0x40	64
34	0xea	-22
35	0x02	2
36	0xa3	-93
37	0xf0	-16
38	0x04	4
39	0x89	-119
40	0x10	16
41	0xeb	-21
42	0xed	-19
43	0xf0	-16
44	0xf3	-13
45	0x10	16
46	0x0b	11
47	0x01	1
48	0x22	34
49	0xe6	-26
50	0x0b	11
51	0xd0	-48
52	0xd2	-46
53	0x0d	13
54	0xc7	-57
55	0xea	-22
56	0xe0	-32
57	0x40	64
58	0xf5	-11
59	0xd1	-47
60	0xee	-18
61	0xc4	-60
62	0x0d	13
63	0xea	-22
64	0xe7	-25
65	0x20	32
66	0x01	1
67	0xdc	-36
68	0x7f	127
69	0xdf	-33
70	0x31	49
71	0xfc	-4
72	0xf9	-7
73	0xf8	-8
74	0x35	53
75	0xcf	-49
76	0xdb	-37
77	0x0c	12
78	0x24	36
79	0xf8	-8
80	0x0e	14
81	0xed	-19
82	0xe4	-28
83	0xe5	-27
84	0x02	2
85	0x11	17
86	0x2e	46
87	0xd6	-42
88	0xb9	-71
89	0xfc	-4
90	0xf1	-15
91	0xe3	-29
92	0x0e	14
93	0xcb	-53
94	0xb9	-71
95	0xf5	-11
96	0x38	56
97	0x21	33
98	0xce	-50
99	0x00	0
100	0xc4	-60
101	0xfa	-6
102	0x02	2
103	0x16	22
104	0xe9	-23
105	0x9b	-101
106	0xf3	-13
107	0x2c	44
108	0x1b	27
109	0x0f	15
110	0xe2	-30
111	0xfd	-3
112	0xf6	-10
113	0xe5	-27
114	0xf4	-12
115	0xf6	-10
116	0x13	19
117	0xd5	-43
118	0xc6	-58
119	0xed	-19
120	0xdf	-33
121	0x1e	30
122	0x17	23
123	0x3d	61
124	0xfb	-5
125	0x02	2
126	0x20	32
127	0xe0	-32
128	0xc6	-58
129	0x1d	29
130	0x10	16
131	0xd9	-39
132	0xd1	-47
133	0xcf	-49
134	0xf5	-11
135	0x1b	27
136	0xcf	-49
137	0x1e	30
138	0xf3	-13
139	0xf6	-10
140	0xfe	-2
141	0x10	16
142	0xf0	-16
143	0xfc	-4
144	0x1a	26
145	0xef	-17
146	0x10	16
147	0x46	70
148	0xce	-50
149	0xfd	-3
150	0xbf	-65
151	0x1b	27
152	0xe4	-28
153	0xfd	-3
154	0x1f	31
155	0xf5	-11
156	0x29	41
157	0xf6	-10
158	0x46	70
159	0xea	-22
160	0x0e	14
161	0xb7	-73
162	0x2a	42
163	0x4b	75
164	0x4e	78
165	0x0f	15
166	0xdc	-36
167	0x0a	10
168	0x8b	-117
169	0xc4	-60
170	0xea	-22
171	0xee	-18
172	0x41	65
173	0x10	16
174	0xd9	-39
175	0xb2	-78
176	0xad	-83
177	0x42	66
178	0x55	85
179	0x03	3
180	0xd4	-44
181	0x7f	127
182	0xff	-1
183	0x28	40
184	0x05	5
185	0xe2	-30
186	0xce	-50
187	0x13	19
188	0xf6	-10
189	0x0d	13
190	0xf7	-9
191	0x78	120
192	0xda	-38
193	0x0e	14
194	0x31	49
195	0x08	8
196	0x1f	31
197	0x40	64
198	0x18	24
199	0x42	66
200	0x0d	13
201	0x1d	29
202	0xe1	-31
203	0x3a	58
204	0x7c	124
205	0xd6	-42
206	0x51	81
207	0x0b	11
208	0xbd	-67
209	0x00	0
210	0x0d	13
211	0xe2	-30
212	0x3f	63
213	0x2d	45
214	0x25	37
215	0x32	50
216	0x0e	14
217	0x2b	43
218	0x07	7
219	0xe9	-23
220	0x0c	12
221	0xdb	-37
222	0x13	19
223	0x04	4
224	0x39	57
225	0x19	25
226	0xf9	-7
227	0x3a	58
228	0x81	-127
229	0x24	36
230	0xcb	-53
231	0x3d	61
232	0xe8	-24
233	0x03	3
234	0x10	16
235	0x1a	26
236	0xca	-54
237	0x1a	26
238	0xc6	-58
239	0xf3	-13
240	0x0b	11
241	0xd5	-43
242	0xf8	-8
243	0xfe	-2
244	0x12	18
245	0x2d	45
246	0x11	17
247	0x0b	11
248	0xe8	-24
249	0x3a	58
250	0x01	1
251	0xae	-82
252	0xd1	-47
253	0x37	55
254	0x0c	12
255	0xb8	-72

fuse_attr_50 i1 [16, 3, 3, 3]
0	0xf8	-8
1	0xf5	-11
2	0x05	5
3	0x1c	28
4	0x21	33
5	0xfc	-4
6	0x03	3
7	0x0f	15
8	0x06	6
9	0xa1	-95
10	0xa1	-95
11	0xe4	-28
12	0x22	34
13	0x04	4
14	0xfc	-4
15	0xd6	-42
16	0xdc	-36
17	0xf3	-13
18	0xea	-22
19	0xe7	-25
20	0xec	-20
21	0x7f	127
22	0x74	116
23	0x3a	58
24	0xf7	-9
25	0x0f	15
26	0xfe	-2
27	0x12	18
28	0x2e	46
29	0xfa	-6
30	0x35	53
31	0x32	50
32	0x0c	12
33	0xd4	-44
34	0xc5	-59
35	0xef	-17
36	0x11	17
37	0x1f	31
38	0x13	19
39	0x24	36
40	0x0f	15
41	0x14	20
42	0x95	-107
43	0x81	-127
44	0xd2	-46
45	0x03	3
46	0x1b	27
47	0x0c	12
48	0x02	2
49	0x09	9
50	0xf8	-8
51	0xbe	-66
52	0xcd	-51
53	0xf4	-12
54	0xfc	-4
55	0x18	24
56	0xf4	-12
57	0x14	20
58	0x0a	10
59	0x00	0
60	0xd3	-45
61	0xba	-70
62	0x04	4
63	0x3a	58
64	0x66	102
65	0x19	25
66	0x69	105
67	0x64	100
68	0x3e	62
69	0x95	-107
70	0x81	-127
71	0xc2	-62
72	0x05	5
73	0x1f	31
74	0x04	4
75	0x2b	43
76	0x16	22
77	0x17	23
78	0xb4	-76
79	0x9b	-101
80	0xda	-38
81	0x02	2
82	0xfb	-5
83	0x03	3
84	0xea	-22
85	0xdf	-33
86	0x00	0
87	0x8b	-117
88	0x81	-127
89	0xc6	-58
90	0xff	-1
91	0x06	6
92	0xfd	-3
93	0x21	33
94	0x26	38
95	0x05	5
96	0x66	102
97	0x70	112
98	0x3b	59
99	0x00	0
100	0x01	1
101	0x02	2
102	0xfc	-4
103	0x02	2
104	0xfd	-3
105	0x06	6
106	0x07	7
107	0xfc	-4
108	0xe8	-24
109	0x07	7
110	0x07	7
111	0x06	6
112	0x04	4
113	0xe9	-23
114	0x47	71
115	0x6e	110
116	0x18	24
117	0xac	-84
118	0x97	-105
119	0xe2	-30
120	0xc2	-62
121	0x81	-127
122	0xda	-38
123	0x36	54
124	0x4c	76
125	0xea	-22
126	0xfa	-6
127	0xfd	-3
128	0x0c	12
129	0xf5	-11
130	0x01	1
131	0xeb	-21
132	0x27	39
133	0x69	105
134	0x2f	47
135	0xd3	-45
136	0x1d	29
137	0x0e	14
138	0xf6	-10
139	0xdc	-36
140	0x30	48
141	0x26	38
142	0xff	-1
143	0xdb	-37
144	0x39	57
145	0xe7	-25
146	0xdf	-33
147	0x5d	93
148	0xdd	-35
149	0xc6	-58
150	0x37	55
151	0x00	0
152	0xc9	-55
153	0x7c	124
154	0x81	-127
155	0x01	1
156	0x7f	127
157	0xce	-50
158	0xb3	-77
159	0x2a	42
160	0xf6	-10
161	0xe0	-32
162	0xd5	-43
163	0x56	86
164	0xd5	-43
165	0xce	-50
166	0x54	84
167	0xe1	-31
168	0x28	40
169	0xc7	-57
170	0x11	17
171	0xb7	-73
172	0x7f	127
173	0xcb	-53
174	0xd8	-40
175	0x50	80
176	0xd9	-39
177	0x2e	46
178	0xbf	-65
179	0x14	20
180	0xc9	-55
181	0x67	103
182	0xcf	-49
183	0x07	7
184	0x17	23
185	0xe5	-27
186	0x0b	11
187	0xe2	-30
188	0x14	20
189	0xfd	-3
190	0xff	-1
191	0x02	2
192	0xfa	-6
193	0xff	-1
194	0xfa	-6
195	0x05	5
196	0x00	0
197	0xfd	-3
198	0x02	2
199	0x0b	11
200	0xfc	-4
201	0x42	66
202	0x46	70
203	0x11	17
204	0x73	115
205	0x6b	107
206	0x3c	60
207	0x00	0
208	0xf8	-8
209	0x01	1
210	0xd3	-45
211	0xd5	-43
212	0xf9	-7
213	0x87	-121
214	0x81	-127
215	0xc4	-60
216	0x19	25
217	0x1c	28
218	0x12	18
219	0x8f	-113
220	0x81	-127
221	0xc8	-56
222	0xf9	-7
223	0xe5	-27
224	0xfe	-2
225	0x2a	42
226	0x28	40
227	0x14	20
228	0xf2	-14
229	0xfc	-4
230	0x03	3
231	0x0b	11
232	0x0c	12
233	0x07	7
234	0xf2	-14
235	0xef	-17
236	0xeb	-21
237	0x34	52
238	0x43	67
239	0x1e	30
240	0x0e	14
241	0x18	24
242	0x00	0
243	0x03	3
244	0x1b	27
245	0xf6	-10
246	0x23	35
247	0x54	84
248	0xd2	-46
249	0xff	-1
250	0x6b	107
251	0xda	-38
252	0x1c	28
253	0x10	16
254	0x0b	11
255	0x69	105

fuse_attr_86 i1 [1, 3, 3, 64]
0	0x0b	11
1	0x40	64
2	0x00	0
3	0xd1	-47
4	0x06	6
5	0x03	3
6	0xf5	-11
7	0xd0	-48
8	0xf9	-7
9	0x0d	13
10	0xf0	-16
11	0x24	36
12	0xce	-50
13	0xfc	-4
14	0xf6	-10
15	0x08	8
16	0xea	-22
17	0xe1	-31
18	0xe7	-25
19	0x26	38
20	0x0a	10
21	0xf6	-10
22	0xee	-18
23	0xed	-19
24	0xf0	-16
25	0x1b	27
26	0xfb	-5
27	0x18	24
28	0xf1	-15
29	0x94	-108
30	0xfb	-5
31	0x03	3
32	0x50	80
33	0xf0	-16
34	0x2f	47
35	0x05	5
36	0xfb	-5
37	0x11	17
38	0xfd	-3
39	0xf5	-11
40	0x00	0
41	0xf8	-8
42	0xef	-17
43	0x24	36
44	0xf6	-10
45	0x0c	12
46	0xf3	-13
47	0xe3	-29
48	0x48	72
49	0x25	37
50	0x04	4
51	0x16	22
52	0x2e	46
53	0xfc	-4
54	0xe3	-29
55	0x07	7
56	0x02	2
57	0xf6	-10
58	0xf2	-14
59	0xf5	-11
60	0x03	3
61	0x1b	27
62	0x17	23
63	0xec	-20
64	0x1b	27
65	0x6a	106
66	0x3e	62
67	0x22	34
68	0xe7	-25
69	0x0a	10
70	0xf6	-10
71	0x2c	44
72	0x0d	13
73	0x67	103
74	0x81	-127
75	0xc0	-64
76	0xc5	-59
77	0xe8	-24
78	0xbf	-65
79	0xf1	-15
80	0xdd	-35
81	0x00	0
82	0xe1	-31
83	0x12	18
84	0x0d	13
85	0xf7	-9
86	0x10	16
87	0xdd	-35
88	0xe9	-23
89	0x3f	63
90	0x50	80
91	0x33	51
92	0x81	-127
93	0xf6	-10
94	0xfe	-2
95	0x07	7
96	0xdd	-35
97	0xea	-22
98	0x50	80
99	0x0a	10
100	0xf2	-14
101	0x81	-127
102	0xd6	-42
103	0x14	20
104	0x35	53
105	0x30	48
106	0x7e	126
107	0x7f	127
108	0xf6	-10
109	0xbd	-67
110	0xf8	-8
111	0x88	-120
112	0x7f	127
113	0xd8	-40
114	0x8c	-116
115	0x75	117
116	0x4d	77
117	0xfb	-5
118	0x23	35
119	0xed	-19
120	0x37	55
121	0xeb	-21
122	0xd0	-48
123	0x08	8
124	0xf3	-13
125	0x52	82
126	0xe0	-32
127	0xce	-50
128	0x0d	13
129	0x47	71
130	0xcb	-53
131	0xf6	-10
132	0x04	4
133	0x04	4
134	0xf6	-10
135	0xff	-1
136	0xf6	-10
137	0x0d	13
138	0xe8	-24
139	0x0a	10
140	0xd5	-43
141	0xf3	-13
142	0xf9	-7
143	0x07	7
144	0xde	-34
145	0xe9	-23
146	0xe7	-25
147	0xe9	-23
148	0x0b	11
149	0xfc	-4
150	0xea	-22
151	0xf6	-10
152	0xdc	-36
153	0x1f	31
154	0xfe	-2
155	0x21	33
156	0xec	-20
157	0xab	-85
158	0xfc	-4
159	0x02	2
160	0x4d	77
161	0xed	-19
162	0x32	50
163	0x06	6
164	0xfe	-2
165	0x10	16
166	0xfd	-3
167	0xea	-22
168	0xf7	-9
169	0x00	0
170	0xf4	-12
171	0x32	50
172	0xfa	-6
173	0xf1	-15
174	0xfd	-3
175	0xdf	-33
176	0x51	81
177	0xfe	-2
178	0x1b	27
179	0x22	34
180	0x2e	46
181	0xfe	-2
182	0x1c	28
183	0x06	6
184	0x05	5
185	0xf0	-16
186	0xee	-18
187	0xfb	-5
188	0x07	7
189	0x24	36
190	0x20	32
191	0xdb	-37
192	0x0c	12
193	0x4b	75
194	0x0e	14
195	0x46	70
196	0xfb	-5
197	0x0d	13
198	0xe8	-24
199	0x81	-127
200	0xf7	-9
201	0x1b	27
202	0x02	2
203	0x4c	76
204	0xc2	-62
205	0xd8	-40
206	0x2a	42
207	0xff	-1
208	0xda	-38
209	0xcb	-53
210	0xa3	-93
211	0x5f	95
212	0x00	0
213	0xff	-1
214	0x24	36
215	0x7f	127
216	0xc2	-62
217	0x7c	124
218	0x3d	61
219	0x2d	45
220	0x0c	12
221	0x81	-127
222	0xfc	-4
223	0x01	1
224	0x78	120
225	0x0f	15
226	0x05	5
227	0x32	50
228	0xf9	-7
229	0x0f	15
230	0x09	9
231	0x02	2
232	0x19	25
233	0x2a	42
234	0xfe	-2
235	0x31	49
236	0x1e	30
237	0xee	-18
238	0x44	68
239	0xa5	-91
240	0xf0	-16
241	0x7f	127
242	0xf3	-13
243	0xf3	-13
244	0xe9	-23
245	0x0f	15
246	0x81	-127
247	0xf5	-11
248	0xfe	-2
249	0xf7	-9
250	0xee	-18
251	0xfe	-2
252	0x04	4
253	0xc0	-64
254	0x3b	59
255	0xe9	-23

fuse_attr_101 i1 [192, 1, 1, 48]
0	0xfa	-6
1	0x34	52
2	0xd4	-44
3	0xdc	-36
4	0xf5	-11
5	0xdc	-36
6	0x8f	-113
7	0x7f	127
8	0xe5	-27
9	0x0e	14
10	0xfe	-2
11	0xfe	-2
12	0xe5	-27
13	0xfd	-3
14	0x0f	15
15	0x21	33
16	0xdd	-35
17	0xf4	-12
18	0xba	-70
19	0x16	22
20	0xca	-54
21	0xe8	-24
22	0xdc	-36
23	0x02	2
24	0x21	33
25	0x0c	12
26	0xe5	-27
27	0x11	17
28	0xdb	-37
29	0xea	-22
30	0x1c	28
31	0xe4	-28
32	0xf3	-13
33	0xeb	-21
34	0x17	23
35	0xc3	-61
36	0x3b	59
37	0x26	38
38	0x06	6
39	0xfd	-3
40	0x0b	11
41	0x1f	31
42	0x50	80
43	0xdc	-36
44	0x68	104
45	0xf2	-14
46	0x1c	28
47	0xc4	-60
48	0xd8	-40
49	0x01	1
50	0xed	-19
51	0x00	0
52	0xd1	-47
53	0xd7	-41
54	0x81	-127
55	0x24	36
56	0x10	16
57	0x39	57
58	0xf6	-10
59	0x2a	42
60	0x48	72
61	0x15	21
62	0x10	16
63	0x0a	10
64	0xea	-22
65	0x3e	62
66	0x4d	77
67	0xd0	-48
68	0x02	2
69	0x03	3
70	0x27	39
71	0x58	88
72	0x36	54
73	0x50	80
74	0x50	80
75	0x0c	12
76	0x3b	59
77	0x36	54
78	0xd7	-41
79	0xc8	-56
80	0x4d	77
81	0x5a	90
82	0xeb	-21
83	0xfd	-3
84	0x2d	45
85	0xdf	-33
86	0x52	82
87	0x17	23
88	0x4b	75
89	0xbc	-68
90	0xde	-34
91	0x10	16
92	0x38	56
93	0x20	32
94	0xeb	-21
95	0x30	48
96	0xf8	-8
97	0x2b	43
98	0x2b	43
99	0xf0	-16
100	0xf4	-12
101	0x2d	45
102	0x97	-105
103	0x7f	127
104	0x2c	44
105	0x24	36
106	0x0c	12
107	0x30	48
108	0x18	24
109	0x47	71
110	0x07	7
111	0xec	-20
112	0xef	-17
113	0xcc	-52
114	0xb0	-80
115	0x14	20
116	0x16	22
117	0xf9	-7
118	0x0b	11
119	0x52	82
120	0x0b	11
121	0x05	5
122	0x22	34
123	0xf3	-13
124	0xff	-1
125	0xda	-38
126	0x04	4
127	0x08	8
128	0xf6	-10
129	0xf5	-11
130	0x26	38
131	0x4a	74
132	0xf5	-11
133	0x02	2
134	0x0e	14
135	0x10	16
136	0x1c	28
137	0x1c	28
138	0xeb	-21
139	0x45	69
140	0x0f	15
141	0x26	38
142	0x0b	11
143	0xe5	-27
144	0xff	-1
145	0x19	25
146	0x0e	14
147	0x01	1
148	0x32	50
149	0x13	19
150	0xca	-54
151	0x70	112
152	0xf8	-8
153	0xd3	-45
154	0xf2	-14
155	0xe9	-23
156	0xaa	-86
157	0x21	33
158	0xd7	-41
159	0xe2	-30
160	0x1a	26
161	0xd0	-48
162	0x27	39
163	0xf5	-11
164	0x24	36
165	0x60	96
166	0xf7	-9
167	0x05	5
168	0x9e	-98
169	0x0a	10
170	0xef	-17
171	0x17	23
172	0xed	-19
173	0xfd	-3
174	0x0c	12
175	0x18	24
176	0xdd	-35
177	0xff	-1
178	0x1d	29
179	0xea	-22
180	0xcc	-52
181	0xe1	-31
182	0x25	37
183	0xf1	-15
184	0x21	33
185	0xfe	-2
186	0xe1	-31
187	0x06	6
188	0x8e	-114
189	0x14	20
190	0x7f	127
191	0x46	70
192	0x0f	15
193	0xe7	-25
194	0x02	2
195	0xe7	-25
196	0x21	33
197	0xff	-1
198	0xc2	-62
199	0x7f	127
200	0xeb	-21
201	0xe7	-25
202	0x2b	43
203	0x16	22
204	0x24	36
205	0x00	0
206	0x0a	10
207	0x09	9
208	0x0b	11
209	0xec	-20
210	0x10	16
211	0x07	7
212	0xe6	-26
213	0xfc	-4
214	0xf0	-16
215	0x20	32
216	0x0d	13
217	0xf8	-8
218	0x08	8
219	0x07	7
220	0xe7	-25
221	0xd2	-46
222	0x1f	31
223	0x19	25
224	0x0b	11
225	0x34	52
226	0xef	-17
227	0xf5	-11
228	0xe2	-30
229	0xea	-22
230	0xed	-19
231	0xf7	-9
232	0x15	21
233	0xdd	-35
234	0x00	0
235	0x11	17
236	0xdc	-36
237	0x13	19
238	0x3e	62
239	0x0f	15
240	0x08	8
241	0x14	20
242	0xe9	-23
243	0xca	-54
244	0xff	-1
245	0x40	64
246	0xe8	-24
247	0x4b	75
248	0xde	-34
249	0xdb	-37
250	0x00	0
251	0x1e	30
252	0x9f	-97
253	0xdd	-35
254	0x7f	127
255	0xec	-20

fuse_attr_98 i1 [96, 1, 1, 48]
0	0xc4	-60
1	0x1b	27
2	0x0c	12
3	0x3b	59
4	0xda	-38
5	0x19	25
6	0x03	3
7	0x62	98
8	0xdb	-37
9	0xa9	-87
10	0xbc	-68
11	0x53	83
12	0x0f	15
13	0xd3	-45
14	0xe1	-31
15	0x2f	47
16	0x16	22
17	0x33	51
18	0xec	-20
19	0x5c	92
20	0x55	85
21	0x12	18
22	0x11	17
23	0xf0	-16
24	0xeb	-21
25	0xe8	-24
26	0xba	-70
27	0x0c	12
28	0x37	55
29	0x81	-127
30	0x34	52
31	0x0e	14
32	0xaf	-81
33	0xf3	-13
34	0x66	102
35	0x37	55
36	0xc9	-55
37	0xf1	-15
38	0xb9	-71
39	0xf2	-14
40	0xb7	-73
41	0x6d	109
42	0x0b	11
43	0x3f	63
44	0x84	-124
45	0x67	103
46	0x33	51
47	0xb6	-74
48	0xca	-54
49	0x45	69
50	0xfd	-3
51	0x51	81
52	0xee	-18
53	0x37	55
54	0x13	19
55	0x29	41
56	0xfa	-6
57	0xa5	-91
58	0xf9	-7
59	0x17	23
60	0x41	65
61	0x56	86
62	0x1b	27
63	0x24	36
64	0x46	70
65	0x5f	95
66	0xf6	-10
67	0x16	22
68	0x1a	26
69	0x27	39
70	0x18	24
71	0x3a	58
72	0x04	4
73	0x1e	30
74	0xd4	-44
75	0x1b	27
76	0xe3	-29
77	0xb9	-71
78	0x31	49
79	0x16	22
80	0x81	-127
81	0xdf	-33
82	0x30	48
83	0xe2	-30
84	0xc5	-59
85	0xf5	-11
86	0x05	5
87	0xbe	-66
88	0xc1	-63
89	0x1f	31
90	0xf5	-11
91	0x39	57
92	0xcc	-52
93	0x32	50
94	0xfb	-5
95	0xaf	-81
96	0xcc	-52
97	0x49	73
98	0x0f	15
99	0x15	21
100	0x01	1
101	0x21	33
102	0x2c	44
103	0xdb	-37
104	0xa5	-91
105	0xc9	-55
106	0x3f	63
107	0x08	8
108	0x19	25
109	0xcf	-49
110	0x4d	77
111	0xc0	-64
112	0x06	6
113	0xed	-19
114	0x81	-127
115	0xd6	-42
116	0xe8	-24
117	0x28	40
118	0x3d	61
119	0x11	17
120	0x00	0
121	0x01	1
122	0xff	-1
123	0x7a	122
124	0xf0	-16
125	0x0f	15
126	0x25	37
127	0xee	-18
128	0x0a	10
129	0xd2	-46
130	0x3f	63
131	0x23	35
132	0x64	100
133	0x1d	29
134	0xf2	-14
135	0xe7	-25
136	0xe5	-27
137	0x04	4
138	0x14	20
139	0x13	19
140	0x0b	11
141	0xf2	-14
142	0x41	65
143	0xeb	-21
144	0x0d	13
145	0xfa	-6
146	0xf1	-15
147	0x2f	47
148	0xdf	-33
149	0x2b	43
150	0x13	19
151	0x04	4
152	0x04	4
153	0xdf	-33
154	0xc9	-55
155	0x15	21
156	0x22	34
157	0x11	17
158	0x21	33
159	0xf7	-9
160	0x1e	30
161	0x2f	47
162	0xd1	-47
163	0xf9	-7
164	0x23	35
165	0xd5	-43
166	0xf0	-16
167	0x41	65
168	0x33	51
169	0x07	7
170	0x21	33
171	0x15	21
172	0xff	-1
173	0xcf	-49
174	0x7f	127
175	0x13	19
176	0xea	-22
177	0x0f	15
178	0x35	53
179	0xed	-19
180	0x01	1
181	0x1e	30
182	0xfc	-4
183	0xba	-70
184	0xfe	-2
185	0x22	34
186	0xe2	-30
187	0xf8	-8
188	0x00	0
189	0xfc	-4
190	0x1a	26
191	0xce	-50
192	0xda	-38
193	0x42	66
194	0xe9	-23
195	0x5d	93
196	0xe0	-32
197	0x3b	59
198	0x1f	31
199	0x3f	63
200	0xe3	-29
201	0x81	-127
202	0x10	16
203	0x06	6
204	0x49	73
205	0x79	121
206	0x04	4
207	0x33	51
208	0x59	89
209	0x63	99
210	0xfa	-6
211	0xf6	-10
212	0x21	33
213	0x2e	46
214	0x34	52
215	0x34	52
216	0x01	1
217	0x26	38
218	0xcf	-49
219	0x1d	29
220	0xc4	-60
221	0xcb	-53
222	0x59	89
223	0x3a	58
224	0x8c	-116
225	0xc3	-61
226	0x21	33
227	0xd8	-40
228	0xdd	-35
229	0xe8	-24
230	0xfb	-5
231	0x96	-106
232	0xb5	-75
233	0x3b	59
234	0x00	0
235	0x40	64
236	0xc4	-60
237	0x4d	77
238	0xef	-17
239	0x92	-110
240	0x28	40
241	0x0c	12
242	0xeb	-21
243	0x60	96
244	0x66	102
245	0x20	32
246	0x1b	27
247	0xe9	-23
248	0x0e	14
249	0xee	-18
250	0x7f	127
251	0x04	4
252	0x00	0
253	0xee	-18
254	0xca	-54
255	0x39	57

fuse_attr_85 i1 [64, 1, 1, 16]
0	0x91	-111
1	0x5c	92
2	0xf4	-12
3	0xa8	-88
4	0xc3	-61
5	0x25	37
6	0x27	39
7	0xf2	-14
8	0xc0	-64
9	0x7f	127
10	0x74	116
11	0x16	22
12	0x41	65
13	0xcc	-52
14	0x1f	31
15	0x07	7
16	0x07	7
17	0x44	68
18	0xf4	-12
19	0x27	39
20	0xee	-18
21	0x0a	10
22	0x73	115
23	0x10	16
24	0x0c	12
25	0x7f	127
26	0x4b	75
27	0xe6	-26
28	0x0a	10
29	0x20	32
30	0xc6	-58
31	0xda	-38
32	0xd2	-46
33	0x0a	10
34	0xe2	-30
35	0x11	17
36	0xcf	-49
37	0x2e	46
38	0x59	89
39	0x81	-127
40	0xfb	-5
41	0x2f	47
42	0x63	99
43	0x2e	46
44	0x39	57
45	0xfa	-6
46	0xd3	-45
47	0xd4	-44
48	0x02	2
49	0xd0	-48
50	0xf6	-10
51	0x0e	14
52	0xef	-17
53	0xcf	-49
54	0x81	-127
55	0xfb	-5
56	0xf4	-12
57	0x9c	-100
58	0xde	-34
59	0x22	34
60	0xde	-34
61	0xe8	-24
62	0x4d	77
63	0xea	-22
64	0x21	33
65	0x25	37
66	0xf6	-10
67	0x09	9
68	0xac	-84
69	0x07	7
70	0x40	64
71	0x12	18
72	0xc8	-56
73	0x1b	27
74	0xe5	-27
75	0x7f	127
76	0xfc	-4
77	0x26	38
78	0x21	33
79	0xf0	-16
80	0x1f	31
81	0x07	7
82	0x58	88
83	0x29	41
84	0xaa	-86
85	0x70	112
86	0x68	104
87	0x18	24
88	0x00	0
89	0xad	-83
90	0xdd	-35
91	0x85	-123
92	0xdf	-33
93	0xbe	-66
94	0x7f	127
95	0x2a	42
96	0xf7	-9
97	0xfc	-4
98	0x04	4
99	0xbd	-67
100	0x1d	29
101	0x08	8
102	0xea	-22
103	0x00	0
104	0x1c	28
105	0x44	68
106	0xf4	-12
107	0x12	18
108	0xed	-19
109	0x18	24
110	0x81	-127
111	0x17	23
112	0x0d	13
113	0xb7	-73
114	0x13	19
115	0x17	23
116	0x0c	12
117	0xee	-18
118	0xe8	-24
119	0x83	-125
120	0x00	0
121	0x04	4
122	0x2d	45
123	0xd2	-46
124	0x81	-127
125	0x26	38
126	0xee	-18
127	0x0c	12
128	0xe5	-27
129	0x7f	127
130	0x07	7
131	0x9a	-102
132	0xac	-84
133	0x2d	45
134	0x12	18
135	0x28	40
136	0x53	83
137	0x3e	62
138	0x00	0
139	0x31	49
140	0x9c	-100
141	0x1b	27
142	0xd0	-48
143	0x0a	10
144	0x0c	12
145	0x4a	74
146	0xdc	-36
147	0x14	20
148	0xc9	-55
149	0x29	41
150	0x63	99
151	0x1d	29
152	0xcc	-52
153	0x7f	127
154	0x32	50
155	0x44	68
156	0x30	48
157	0x26	38
158	0xf0	-16
159	0x11	17
160	0xb1	-79
161	0x01	1
162	0x42	66
163	0x2e	46
164	0x13	19
165	0xf9	-7
166	0x32	50
167	0xfb	-5
168	0xd9	-39
169	0x07	7
170	0x48	72
171	0x7f	127
172	0x1c	28
173	0xfb	-5
174	0x2e	46
175	0xe9	-23
176	0x2d	45
177	0xd3	-45
178	0x7d	125
179	0x30	48
180	0x0c	12
181	0x26	38
182	0x33	51
183	0xfc	-4
184	0x36	54
185	0x7f	127
186	0xd0	-48
187	0xf4	-12
188	0xd0	-48
189	0xeb	-21
190	0xf3	-13
191	0xf3	-13
192	0x81	-127
193	0x1f	31
194	0x69	105
195	0xc3	-61
196	0xea	-22
197	0xcd	-51
198	0x59	89
199	0xb1	-79
200	0x19	25
201	0xc5	-59
202	0xa1	-95
203	0x15	21
204	0xe3	-29
205	0x3b	59
206	0x16	22
207	0x28	40
208	0xec	-20
209	0xde	-34
210	0x0e	14
211	0x28	40
212	0x20	32
213	0x44	68
214	0x03	3
215	0x12	18
216	0x26	38
217	0x2e	46
218	0xd6	-42
219	0x27	39
220	0x34	52
221	0xb1	-79
222	0x81	-127
223	0xef	-17
224	0x04	4
225	0x69	105
226	0x9e	-98
227	0x57	87
228	0xe1	-31
229	0xb1	-79
230	0xfc	-4
231	0x02	2
232	0x49	73
233	0x7f	127
234	0xd8	-40
235	0xef	-17
236	0xc1	-63
237	0xe0	-32
238	0xe3	-29
239	0xcc	-52
240	0x25	37
241	0xce	-50
242	0x17	23
243	0x48	72
244	0xf9	-7
245	0xd2	-46
246	0x7f	127
247	0xe3	-29
248	0x45	69
249	0xb3	-77
250	0xfd	-3
251	0x3e	62
252	0x23	35
253	0xf1	-15
254	0x4d	77
255	0xc9	-55

fuse_attr_52 i1 [16, 1, 1, 16]
0	0xda	-38
1	0x30	48
2	0x1b	27
3	0x66	102
4	0x0e	14
5	0xf4	-12
6	0x04	4
7	0x17	23
8	0x0a	10
9	0x1f	31
10	0xdf	-33
11	0x26	38
12	0x8c	-116
13	0x15	21
14	0x7f	127
15	0xe8	-24
16	0x0d	13
17	0x07	7
18	0x0e	14
19	0x10	16
20	0x00	0
21	0x81	-127
22	0x1b	27
23	0x02	2
24	0xfe	-2
25	0x06	6
26	0x0e	14
27	0x76	118
28	0x39	57
29	0xf5	-11
30	0xff	-1
31	0xef	-17
32	0xf8	-8
33	0xe9	-23
34	0xe0	-32
35	0xba	-70
36	0xff	-1
37	0x00	0
38	0xfe	-2
39	0xed	-19
40	0xff	-1
41	0x0f	15
42	0x06	6
43	0x18	24
44	0xdd	-35
45	0x81	-127
46	0x46	70
47	0x21	33
48	0xd1	-47
49	0xee	-18
50	0xcb	-53
51	0x20	32
52	0x2c	44
53	0x21	33
54	0x08	8
55	0x02	2
56	0x1c	28
57	0xf4	-12
58	0x7f	127
59	0x2e	46
60	0xda	-38
61	0x04	4
62	0xa8	-88
63	0x31	49
64	0xf5	-11
65	0x0f	15
66	0x07	7
67	0x87	-121
68	0x1c	28
69	0x2c	44
70	0xe6	-26
71	0x7f	127
72	0x43	67
73	0x1b	27
74	0x2e	46
75	0x03	3
76	0x54	84
77	0x26	38
78	0x57	87
79	0xee	-18
80	0x85	-123
81	0x22	34
82	0x1b	27
83	0xb6	-74
84	0x48	72
85	0x21	33
86	0xfa	-6
87	0x81	-127
88	0xb6	-74
89	0x2e	46
90	0x9d	-99
91	0x1d	29
92	0x27	39
93	0x51	81
94	0xfc	-4
95	0x41	65
96	0xfa	-6
97	0x15	21
98	0x5f	95
99	0xe3	-29
100	0xd1	-47
101	0x06	6
102	0x05	5
103	0xfd	-3
104	0xd9	-39
105	0x13	19
106	0x7f	127
107	0x11	17
108	0xe0	-32
109	0x35	53
110	0x1d	29
111	0xfc	-4
112	0x35	53
113	0x4d	77
114	0xf7	-9
115	0x05	5
116	0xfd	-3
117	0xf7	-9
118	0x81	-127
119	0xee	-18
120	0x01	1
121	0x06	6
122	0xf3	-13
123	0x08	8
124	0x05	5
125	0x03	3
126	0x00	0
127	0x1c	28
128	0x2c	44
129	0xcc	-52
130	0xc9	-55
131	0xc8	-56
132	0xf7	-9
133	0x40	64
134	0xde	-34
135	0x7f	127
136	0xcf	-49
137	0x60	96
138	0xd9	-39
139	0x52	82
140	0xcf	-49
141	0x3a	58
142	0xc3	-61
143	0xd3	-45
144	0x71	113
145	0x7f	127
146	0x0f	15
147	0xf1	-15
148	0x13	19
149	0x01	1
150	0x5d	93
151	0x3f	63
152	0xe0	-32
153	0xbe	-66
154	0xe2	-30
155	0xfe	-2
156	0xf5	-11
157	0xfa	-6
158	0xf3	-13
159	0x30	48
160	0xef	-17
161	0xfe	-2
162	0x9f	-97
163	0xee	-18
164	0x1c	28
165	0x81	-127
166	0xfe	-2
167	0x23	35
168	0xd7	-41
169	0x18	24
170	0x42	66
171	0x90	-112
172	0xe7	-25
173	0x52	82
174	0x4b	75
175	0xf5	-11
176	0xb9	-71
177	0x7f	127
178	0xd9	-39
179	0xe9	-23
180	0xe4	-28
181	0x07	7
182	0x0a	10
183	0xf6	-10
184	0x08	8
185	0xde	-34
186	0xf6	-10
187	0x0c	12
188	0xfd	-3
189	0x09	9
190	0xea	-22
191	0xc2	-62
192	0xcb	-53
193	0xf9	-7
194	0x04	4
195	0x08	8
196	0xfd	-3
197	0x03	3
198	0xfc	-4
199	0x3a	58
200	0x01	1
201	0xdd	-35
202	0xf6	-10
203	0x07	7
204	0xfd	-3
205	0x0d	13
206	0x1a	26
207	0x7f	127
208	0xac	-84
209	0x13	19
210	0x1c	28
211	0x26	38
212	0xf6	-10
213	0xe9	-23
214	0xdd	-35
215	0x7f	127
216	0xe7	-25
217	0x56	86
218	0xfd	-3
219	0xd3	-45
220	0x26	38
221	0xb7	-73
222	0xa5	-91
223	0x13	19
224	0x00	0
225	0xee	-18
226	0x23	35
227	0x87	-121
228	0x00	0
229	0xa4	-92
230	0x04	4
231	0x16	22
232	0x3a	58
233	0x1d	29
234	0xd7	-41
235	0xde	-34
236	0x8a	-118
237	0x0b	11
238	0x81	-127
239	0x12	18
240	0xf5	-11
241	0xee	-18
242	0x14	20
243	0xf6	-10
244	0x12	18
245	0xf6	-10
246	0xb2	-78
247	0x03	3
248	0xf0	-16
249	0x81	-127
250	0x0e	14
251	0x08	8
252	0xc9	-55
253	0xf2	-14
254	0xfc	-4
255	0xde	-34

fuse_attr_58 i1 [16, 1, 1, 64]
0	0x81	-127
1	0x5c	92
2	0x21	33
3	0xdc	-36
4	0xf8	-8
5	0xca	-54
6	0xe0	-32
7	0xfc	-4
8	0xc8	-56
9	0xdf	-33
10	0x1c	28
11	0xac	-84
12	0xb3	-77
13	0xc5	-59
14	0xce	-50
15	0xfd	-3
16	0x74	116
17	0x32	50
18	0xd0	-48
19	0x9e	-98
20	0xf1	-15
21	0x34	52
22	0x3a	58
23	0x53	83
24	0x0b	11
25	0xd0	-48
26	0xda	-38
27	0x56	86
28	0x18	24
29	0xff	-1
30	0x07	7
31	0x34	52
32	0x2c	44
33	0xf7	-9
34	0xc9	-55
35	0xfc	-4
36	0xb3	-77
37	0xf7	-9
38	0xe6	-26
39	0xe1	-31
40	0x21	33
41	0x1d	29
42	0x0a	10
43	0xdc	-36
44	0xe4	-28
45	0xe6	-26
46	0xf2	-14
47	0x17	23
48	0xfd	-3
49	0xd9	-39
50	0xee	-18
51	0x06	6
52	0xfd	-3
53	0xe5	-27
54	0x13	19
55	0x36	54
56	0xfc	-4
57	0xe6	-26
58	0xe1	-31
59	0x25	37
60	0xf0	-16
61	0xfd	-3
62	0x23	35
63	0xc3	-61
64	0x52	82
65	0x1d	29
66	0xef	-17
67	0xf4	-12
68	0x0f	15
69	0xfd	-3
70	0x1a	26
71	0xd8	-40
72	0xbd	-67
73	0xe2	-30
74	0xcf	-49
75	0xe4	-28
76	0xdc	-36
77	0xd4	-44
78	0xf9	-7
79	0xf4	-12
80	0x2d	45
81	0x32	50
82	0xb4	-76
83	0xf0	-16
84	0x20	32
85	0xfc	-4
86	0xf8	-8
87	0xea	-22
88	0xe1	-31
89	0x7f	127
90	0x35	53
91	0x33	51
92	0x03	3
93	0x1f	31
94	0xe3	-29
95	0xe5	-27
96	0x05	5
97	0x07	7
98	0x05	5
99	0x33	51
100	0x37	55
101	0xba	-70
102	0x1d	29
103	0xd3	-45
104	0xfa	-6
105	0xe3	-29
106	0x2e	46
107	0x40	64
108	0x05	5
109	0xf8	-8
110	0xd9	-39
111	0xeb	-21
112	0x06	6
113	0x08	8
114	0xf2	-14
115	0xdd	-35
116	0x21	33
117	0xe9	-23
118	0x0e	14
119	0xd2	-46
120	0xd8	-40
121	0xcf	-49
122	0xf0	-16
123	0xea	-22
124	0xcd	-51
125	0x03	3
126	0x08	8
127	0xff	-1
128	0xac	-84
129	0x81	-127
130	0xd3	-45
131	0xfb	-5
132	0xf8	-8
133	0x18	24
134	0xf8	-8
135	0x04	4
136	0xf1	-15
137	0xd4	-44
138	0xeb	-21
139	0xf5	-11
140	0x2a	42
141	0xcf	-49
142	0xf2	-14
143	0x27	39
144	0xef	-17
145	0xe7	-25
146	0x41	65
147	0xd9	-39
148	0x23	35
149	0xd9	-39
150	0xf4	-12
151	0xff	-1
152	0x06	6
153	0xb7	-73
154	0x17	23
155	0x1c	28
156	0xe7	-25
157	0x0e	14
158	0xea	-22
159	0x08	8
160	0xff	-1
161	0xe6	-26
162	0xf7	-9
163	0x06	6
164	0x03	3
165	0x18	24
166	0x32	50
167	0x18	24
168	0x03	3
169	0xea	-22
170	0x10	16
171	0xe0	-32
172	0x0c	12
173	0x09	9
174	0xe6	-26
175	0xe5	-27
176	0xfe	-2
177	0xf2	-14
178	0x14	20
179	0x18	24
180	0x14	20
181	0xea	-22
182	0xdf	-33
183	0xd9	-39
184	0xf8	-8
185	0xc9	-55
186	0xed	-19
187	0x01	1
188	0xfb	-5
189	0xd1	-47
190	0xec	-20
191	0xf9	-7
192	0x81	-127
193	0x23	35
194	0xbe	-66
195	0xb8	-72
196	0x00	0
197	0x27	39
198	0x14	20
199	0x3e	62
200	0xe5	-27
201	0x50	80
202	0x23	35
203	0xe9	-23
204	0xd9	-39
205	0xdd	-35
206	0x36	54
207	0x07	7
208	0xde	-34
209	0xf5	-11
210	0xe9	-23
211	0x0e	14
212	0x32	50
213	0x0b	11
214	0x16	22
215	0x39	57
216	0x24	36
217	0x23	35
218	0x31	49
219	0x84	-124
220	0xd5	-43
221	0xd4	-44
222	0xbf	-65
223	0xbb	-69
224	0xee	-18
225	0xca	-54
226	0xaf	-81
227	0x3f	63
228	0x57	87
229	0x02	2
230	0xd2	-46
231	0x07	7
232	0xf8	-8
233	0xce	-50
234	0x46	70
235	0x01	1
236	0x30	48
237	0xd9	-39
238	0x28	40
239	0x52	82
240	0x01	1
241	0x37	55
242	0xe7	-25
243	0xd2	-46
244	0x0d	13
245	0x22	34
246	0xf0	-16
247	0xf7	-9
248	0xb6	-74
249	0xc4	-60
250	0xc2	-62
251	0x09	9
252	0x2c	44
253	0xb5	-75
254	0xde	-34
255	0xf6	-10

fuse_attr_53 i1 [32, 1, 1, 16]
0	0x08	8
1	0x7f	127
2	0xf8	-8
3	0x00	0
4	0x14	20
5	0x11	17
6	0x01	1
7	0x4f	79
8	0xe7	-25
9	0xde	-34
10	0x1e	30
11	0xf3	-13
12	0xf8	-8
13	0x0e	14
14	0xfd	-3
15	0xd1	-47
16	0xd7	-41
17	0x09	9
18	0xf1	-15
19	0x00	0
20	0xfc	-4
21	0xee	-18
22	0xff	-1
23	0xfb	-5
24	0xd1	-47
25	0x53	83
26	0xfa	-6
27	0x29	41
28	0x35	53
29	0xda	-38
30	0xe7	-25
31	0x7f	127
32	0x52	82
33	0x01	1
34	0xd1	-47
35	0x4d	77
36	0x45	69
37	0xe4	-28
38	0x7f	127
39	0xe9	-23
40	0xf8	-8
41	0xf8	-8
42	0x51	81
43	0xda	-38
44	0x31	49
45	0x2a	42
46	0xcf	-49
47	0xeb	-21
48	0xfa	-6
49	0x07	7
50	0x25	37
51	0x1f	31
52	0xe9	-23
53	0x1c	28
54	0xf6	-10
55	0xe6	-26
56	0xea	-22
57	0x81	-127
58	0xb6	-74
59	0xd9	-39
60	0xe6	-26
61	0x45	69
62	0x18	24
63	0x9b	-101
64	0x64	100
65	0x0f	15
66	0xb8	-72
67	0x36	54
68	0xdc	-36
69	0x81	-127
70	0xaf	-81
71	0x0b	11
72	0xd2	-46
73	0x01	1
74	0xe3	-29
75	0xd3	-45
76	0x27	39
77	0x31	49
78	0xba	-70
79	0xd3	-45
80	0x12	18
81	0x08	8
82	0x2e	46
83	0x1f	31
84	0xf2	-14
85	0xf5	-11
86	0xd7	-41
87	0xe0	-32
88	0xf9	-7
89	0x02	2
90	0x01	1
91	0x7f	127
92	0xe6	-26
93	0x63	99
94	0xd8	-40
95	0x30	48
96	0x10	16
97	0xfe	-2
98	0xf2	-14
99	0x70	112
100	0x1f	31
101	0x65	101
102	0x82	-126
103	0xfd	-3
104	0x34	52
105	0x1a	26
106	0x79	121
107	0x81	-127
108	0x20	32
109	0x92	-110
110	0xc7	-57
111	0xff	-1
112	0x47	71
113	0xe3	-29
114	0x1b	27
115	0xf6	-10
116	0xb3	-77
117	0xdb	-37
118	0x0d	13
119	0xfd	-3
120	0xe1	-31
121	0xeb	-21
122	0x6f	111
123	0xe3	-29
124	0xfe	-2
125	0x0c	12
126	0x7f	127
127	0x19	25
128	0x04	4
129	0x2a	42
130	0x03	3
131	0xff	-1
132	0xf0	-16
133	0xf5	-11
134	0x06	6
135	0x81	-127
136	0xf2	-14
137	0x39	57
138	0x04	4
139	0x0f	15
140	0x03	3
141	0xec	-20
142	0x0a	10
143	0xc0	-64
144	0x06	6
145	0x7f	127
146	0x01	1
147	0xfb	-5
148	0xf3	-13
149	0xfd	-3
150	0xfe	-2
151	0x01	1
152	0xf9	-7
153	0xfc	-4
154	0x1e	30
155	0xff	-1
156	0x04	4
157	0x02	2
158	0x1f	31
159	0x0a	10
160	0xfd	-3
161	0x01	1
162	0xc4	-60
163	0xda	-38
164	0x21	33
165	0xab	-85
166	0xef	-17
167	0x1d	29
168	0x58	88
169	0x25	37
170	0x1f	31
171	0x7f	127
172	0xc1	-63
173	0xb6	-74
174	0xfa	-6
175	0x0b	11
176	0xbd	-67
177	0xdc	-36
178	0xeb	-21
179	0xb4	-76
180	0xed	-19
181	0xe8	-24
182	0xfb	-5
183	0xde	-34
184	0x81	-127
185	0xfe	-2
186	0x68	104
187	0xd0	-48
188	0x1d	29
189	0x43	67
190	0x24	36
191	0x0b	11
192	0xf0	-16
193	0x11	17
194	0x2c	44
195	0xd3	-45
196	0xe7	-25
197	0x81	-127
198	0x9d	-99
199	0x2a	42
200	0xf9	-7
201	0x3e	62
202	0xbc	-68
203	0x96	-106
204	0xa0	-96
205	0xce	-50
206	0xef	-17
207	0x10	16
208	0x10	16
209	0x03	3
210	0xc2	-62
211	0x1c	28
212	0x22	34
213	0xeb	-21
214	0xc6	-58
215	0x12	18
216	0x40	64
217	0x24	36
218	0x36	54
219	0x5f	95
220	0x81	-127
221	0xc4	-60
222	0xe6	-26
223	0x10	16
224	0x01	1
225	0x12	18
226	0x81	-127
227	0xbc	-68
228	0x2b	43
229	0xac	-84
230	0x72	114
231	0x18	24
232	0x0a	10
233	0x45	69
234	0xb3	-77
235	0xa7	-89
236	0x91	-111
237	0xce	-50
238	0x31	49
239	0x19	25
240	0x9f	-97
241	0x2a	42
242	0xdc	-36
243	0xe6	-26
244	0x57	87
245	0x20	32
246	0xe5	-27
247	0xd6	-42
248	0xdf	-33
249	0xc4	-60
250	0xd0	-48
251	0xe6	-26
252	0xe8	-24
253	0x24	36
254	0x81	-127
255	0x89	-119

fuse_attr_60 i1 [1, 3, 3, 48]
0	0x06	6
1	0xf2	-14
2	0xcf	-49
3	0xfe	-2
4	0x0d	13
5	0x06	6
6	0x07	7
7	0x02	2
8	0x08	8
9	0x07	7
10	0x05	5
11	0x06	6
12	0xff	-1
13	0xa4	-92
14	0xbb	-69
15	0xfb	-5
16	0x06	6
17	0xf9	-7
18	0xfa	-6
19	0xf6	-10
20	0xe7	-25
21	0xeb	-21
22	0xc7	-57
23	0xae	-82
24	0x09	9
25	0x01	1
26	0xf9	-7
27	0xe4	-28
28	0xdf	-33
29	0x07	7
30	0xef	-17
31	0x08	8
32	0xf8	-8
33	0x2d	45
34	0x51	81
35	0x06	6
36	0x04	4
37	0xf9	-7
38	0x0e	14
39	0xe5	-27
40	0x11	17
41	0xf5	-11
42	0x0e	14
43	0x25	37
44	0xeb	-21
45	0xf7	-9
46	0xf9	-7
47	0x0d	13
48	0x7f	127
49	0x3c	60
50	0x8b	-117
51	0x06	6
52	0x26	38
53	0x7f	127
54	0xe9	-23
55	0x06	6
56	0x49	73
57	0xfc	-4
58	0x0a	10
59	0xf0	-16
60	0xde	-34
61	0x91	-111
62	0x36	54
63	0x07	7
64	0xe7	-25
65	0x7f	127
66	0xd0	-48
67	0x0b	11
68	0xd4	-44
69	0x7f	127
70	0x5b	91
71	0x7f	127
72	0xf5	-11
73	0x50	80
74	0x7f	127
75	0x7f	127
76	0x4a	74
77	0xa3	-93
78	0xf9	-7
79	0x7d	125
80	0x0c	12
81	0xec	-20
82	0x7f	127
83	0x7f	127
84	0xee	-18
85	0x05	5
86	0xf2	-14
87	0x23	35
88	0x51	81
89	0x08	8
90	0x03	3
91	0x81	-127
92	0xd8	-40
93	0xfd	-3
94	0x81	-127
95	0xde	-34
96	0x00	0
97	0xec	-20
98	0xbc	-68
99	0x01	1
100	0xf0	-16
101	0x84	-124
102	0x03	3
103	0x01	1
104	0x06	6
105	0xfb	-5
106	0x07	7
107	0x00	0
108	0xed	-19
109	0x90	-112
110	0xfa	-6
111	0xd8	-40
112	0xff	-1
113	0x1f	31
114	0xfa	-6
115	0xfd	-3
116	0x00	0
117	0xeb	-21
118	0xb4	-76
119	0x10	16
120	0x01	1
121	0x04	4
122	0xa6	-90
123	0x0d	13
124	0xeb	-21
125	0x3b	59
126	0xfa	-6
127	0x23	35
128	0xf8	-8
129	0x21	33
130	0xbb	-69
131	0xde	-34
132	0x0c	12
133	0xeb	-21
134	0xff	-1
135	0xe4	-28
136	0x16	22
137	0xf1	-15
138	0xf7	-9
139	0xfc	-4
140	0xf6	-10
141	0x0f	15
142	0xf7	-9
143	0x10	16
144	0xef	-17
145	0xdb	-37
146	0x16	22
147	0x1e	30
148	0x7d	125
149	0xdf	-33
150	0x3a	58
151	0xec	-20
152	0x4c	76
153	0x1d	29
154	0x15	21
155	0xea	-22
156	0xe3	-29
157	0x41	65
158	0x7f	127
159	0xfa	-6
160	0xf3	-13
161	0x67	103
162	0xe5	-27
163	0x01	1
164	0x2b	43
165	0xd3	-45
166	0xd2	-46
167	0xbb	-69
168	0x00	0
169	0xd9	-39
170	0xda	-38
171	0x1a	26
172	0x22	34
173	0x05	5
174	0xe2	-30
175	0x19	25
176	0xf6	-10
177	0xf8	-8
178	0x3d	61
179	0xdb	-37
180	0xe3	-29
181	0x22	34
182	0xf7	-9
183	0x59	89
184	0x13	19
185	0x07	7
186	0xbe	-66
187	0x9e	-98
188	0xb2	-78
189	0xf3	-13
190	0x16	22
191	0xa9	-87
192	0x8a	-118
193	0x36	54
194	0x7f	127
195	0x81	-127
196	0x81	-127
197	0xf3	-13
198	0xce	-50
199	0x9c	-100
200	0x81	-127
201	0x5a	90
202	0x81	-127
203	0x81	-127
204	0xaf	-81
205	0x81	-127
206	0x09	9
207	0xce	-50
208	0x8b	-117
209	0x03	3
210	0x7f	127
211	0x81	-127
212	0x53	83
213	0x9b	-101
214	0x7f	127
215	0x27	39
216	0x81	-127
217	0x81	-127
218	0xd2	-46
219	0xd4	-44
220	0x7f	127
221	0x7f	127
222	0x7f	127
223	0x81	-127
224	0x71	113
225	0x95	-107
226	0x64	100
227	0xbf	-65
228	0x97	-105
229	0x7f	127
230	0xa2	-94
231	0x7f	127
232	0x81	-127
233	0x84	-124
234	0x7f	127
235	0x6a	106
236	0x81	-127
237	0x01	1
238	0xdb	-37
239	0xda	-38
240	0xf3	-13
241	0xd4	-44
242	0x1e	30
243	0x23	35
244	0xfe	-2
245	0x5e	94
246	0x1d	29
247	0xf1	-15
248	0x2f	47
249	0x81	-127
250	0x1b	27
251	0xed	-19
252	0x7d	125
253	0xf4	-12
254	0xe7	-25
255	0x7f	127
