assets/vww.tflite (tflite, 613840 bytes, 46 tensors)

fuse_attr_64 i1 [1, 3, 3, 192]
000000 b3 c3 11 13 0b b7 c9 fa f2 07 01 01 b6 09 00 00
       -77 -61 17 19 11 -73 -55 -6 -14 7 1 1 -74 9 0 0
000010 25 0b 02 f4 e9 9b ff 04 f8 cd 15 db ff 9a 87 e2
       37 11 2 -12 -23 -101 -1 4 -8 -51 21 -37 -1 -102 -121 -30
000020 d2 18 b8 e2 63 2d fb 10 23 20 1f 09 81 fc 2c fc
       -46 24 -72 -30 99 45 -5 16 35 32 31 9 -127 -4 44 -4
000030 a3 04 ea d1 bf e3 11 f9 f4 d2 b0 f7 f1 e1 f0 29
       -93 4 -22 -47 -65 -29 17 -7 -12 -46 -80 -9 -15 -31 -16 41
000040 03 25 e7 fe 30 f9 fa 2f 24 18 b6 cc da 2d 01 1f
       3 37 -25 -2 48 -7 -6 47 36 24 -74 -52 -38 45 1 31
000050 e8 00 40 10 f1 2d 0d 98 09 94 ea f7 b8 ff 2e 62
       -24 0 64 16 -15 45 13 -104 9 -108 -22 -9 -72 -1 46 98
000060 18 be 2c 3b 05 5e eb ff 09 d6 e4 bb 13 fd f8 dc
       24 -66 44 59 5 94 -21 -1 9 -42 -28 -69 19 -3 -8 -36
000070 8d d1 f0 d0 2f e5 ff 33 42 89 41 00 8b 2b f3 6d
       -115 -47 -16 -48 47 -27 -1 51 66 -119 65 0 -117 43 -13 109
000080 fd 19 10 09 25 85 ab ff 2e fc cc 13 47 cf 5b 00
       -3 25 16 9 37 -123 -85 -1 46 -4 -52 19 71 -49 91 0
000090 f1 11 28 2f 16 15 81 bc 4e ba c4 95 d0 10 aa e1
       -15 17 40 47 22 21 -127 -68 78 -70 -60 -107 -48 16 -86 -31
0000a0 fd ad a1 dc 06 fe bb 13 9b a0 6f 1c 91 40 11 c2
       -3 -83 -95 -36 6 -2 -69 19 -101 -96 111 28 -111 64 17 -62
0000b0 1e 7d dd 81 c4 b0 a0 7f cd 69 4b 25 93 18 d9 3d
       30 125 -35 -127 -60 -80 -96 127 -51 105 75 37 -109 24 -39 61
0000c0 9a b1 17 d4 5f a9 59 04 03 f2 af f4 e1 ef c9 f7
       -102 -79 23 -44 95 -87 89 4 3 -14 -81 -12 -31 -17 -55 -9
0000d0 31 25 d4 ec 81 c6 c8 7f fe 1e 08 92 1c 81 ae be
       49 37 -44 -20 -127 -58 -56 127 -2 30 8 -110 28 -127 -82 -66
0000e0 81 52 bc d7 7f 35 e3 4c 7f 85 1a 0a a0 0f 34 14
       -127 82 -68 -41 127 53 -29 76 127 -123 26 10 -96 15 52 20
0000f0 81 7f e2 e5 ec d4 cf 15 b0 ad bc 66 c3 fc cf 7f
       -127 127 -30 -27 -20 -44 -49 21 -80 -83 -68 102 -61 -4 -49 127

fuse_attr_54 i1 [144, 1, 1, 24]
000000 0f f2 0b 44 15 81 c0 c6 2c 2a a3 16 eb db 10 04
       15 -14 11 68 21 -127 -64 -58 44 42 -93 22 -21 -37 16 4
000010 ac 17 65 75 c7 f2 d8 3b 65 42 e5 19 01 d6 7f 2a
       -84 23 101 117 -57 -14 -40 59 101 66 -27 25 1 -42 127 42
000020 0b 11 fe 5b cb 1c d9 dd 57 9b 1c fa eb 22 27 3e
       11 17 -2 91 -53 28 -39 -35 87 -101 28 -6 -21 34 39 62
000030 f6 23 0f f4 28 13 1d d2 03 0d ef db e2 f8 f4 81
       -10 35 15 -12 40 19 29 -46 3 13 -17 -37 -30 -8 -12 -127
000040 fe 17 0d 15 f7 f7 43 df fd 22 36 16 09 eb fa ef
       -2 23 13 21 -9 -9 67 -33 -3 34 54 22 9 -21 -6 -17
000050 04 03 f6 22 f6 7f fc fe f1 20 ef 04 f7 fc fe 07
       4 3 -10 34 -10 127 -4 -2 -15 32 -17 4 -9 -4 -2 7
000060 24 f6 11 fa 10 eb 16 15 0d 01 ff 1f 0f ef fd 2d
       36 -10 17 -6 16 -21 22 21 13 1 -1 31 15 -17 -3 45
000070 e1 0a f3 72 f6 5a 7f 18 89 fb 60 2b fd b6 5e 17
       -31 10 -13 114 -10 90 127 24 -119 -5 96 43 -3 -74 94 23
000080 0f 00 07 48 f3 dc f5 f6 82 81 1d ee d1 37 08 aa
       15 0 7 72 -13 -36 -11 -10 -126 -127 29 -18 -47 55 8 -86
000090 2f de 12 56 21 fd 1f 37 3a 1c e8 f0 fe fb 65 36
       47 -34 18 86 33 -3 31 55 58 28 -24 -16 -2 -5 101 54
0000a0 b2 e6 24 f6 4a f6 81 33 04 28 0b 1f 18 51 2d 4a
       -78 -26 36 -10 74 -10 -127 51 4 40 11 31 24 81 45 74
0000b0 48 31 b5 c5 db ff ea 8f b6 fc 04 49 36 7f 99 01
       72 49 -75 -59 -37 -1 -22 -113 -74 -4 4 73 54 127 -103 1
0000c0 1f e8 1a 05 f9 08 b1 f6 de 04 e4 fc f5 05 eb f2
       31 -24 26 5 -7 8 -79 -10 -34 4 -28 -4 -11 5 -21 -14
0000d0 fe dc 7f 8e 09 52 1b 02 fa ea f0 c7 0d ec 7f ea
       -2 -36 127 -114 9 82 27 2 -6 -22 -16 -57 13 -20 127 -22
0000e0 3e 0d 11 dc f3 2a c0 30 cc 5b 7c e6 fe 0d f2 fd
       62 13 17 -36 -13 42 -64 48 -52 91 124 -26 -2 13 -14 -3
0000f0 e5 3a 21 54 03 18 35 e4 b4 f0 04 f2 e8 d4 01 3b
       -27 58 33 84 3 24 53 -28 -76 -16 4 -14 -24 -44 1 59

fuse_attr_60 i1 [240, 1, 1, 40]
000000 37 4d 27 e5 dc 04 35 11 e1 0a ea 04 f6 12 8b 17
       55 77 39 -27 -36 4 53 17 -31 10 -22 4 -10 18 -117 23
000010 43 05 09 14 0d fa 05 f7 f7 0d cc d0 20 e6 32 f0
       67 5 9 20 13 -6 5 -9 -9 13 -52 -48 32 -26 50 -16
000020 81 1c 14 ec 09 e4 fb 69 06 ec 38 e2 e0 f4 f9 e2
       -127 28 20 -20 9 -28 -5 105 6 -20 56 -30 -32 -12 -7 -30
000030 eb d1 cb 18 ef ff 1b 07 3f 19 fe ef 06 07 cd f4
       -21 -47 -53 24 -17 -1 27 7 63 25 -2 -17 6 7 -51 -12
000040 e7 d6 ed cd ef c1 16 f0 2c ee 04 46 81 ee b4 0e
       -25 -42 -19 -51 -17 -63 22 -16 44 -18 4 70 -127 -18 -76 14
000050 12 0b 28 dd 04 fe f1 fa f4 04 f5 11 fc eb 10 06
       18 11 40 -35 4 -2 -15 -6 -12 4 -11 17 -4 -21 16 6
000060 20 24 ec 02 fa f5 f9 f2 f1 f2 0c 14 02 de de 09
       32 36 -20 2 -6 -11 -7 -14 -15 -14 12 20 2 -34 -34 9
000070 2f 20 f1 02 7f 13 fd 0a 15 0c 5b d8 94 7f fb fb
       47 32 -15 2 127 19 -3 10 21 12 91 -40 -108 127 -5 -5
000080 06 b4 20 f7 de 59 31 34 51 2a b9 ee 96 4b 3d fd
       6 -76 32 -9 -34 89 49 52 81 42 -71 -18 -106 75 61 -3
000090 50 06 16 39 dd f7 1a fd 29 00 b1 db 29 db 24 5f
       80 6 22 57 -35 -9 26 -3 41 0 -79 -37 41 -37 36 95
0000a0 3d 23 1b 4b 0a c1 f5 12 25 d9 06 0d 17 09 72 3b
       61 35 27 75 10 -63 -11 18 37 -39 6 13 23 9 114 59
0000b0 47 81 de 0a 17 12 fd fe ea 04 ca e0 2e 2f f7 f8
       71 -127 -34 10 23 18 -3 -2 -22 4 -54 -32 46 47 -9 -8
0000c0 26 fd f9 e1 20 d6 fa 38 29 e2 cc 0f 40 2a 18 d5
       38 -3 -7 -31 32 -42 -6 56 41 -30 -52 15 64 42 24 -43
0000d0 f2 24 fc 2d d4 02 cf 07 28 9a 41 1c 11 d7 0e f0
       -14 36 -4 45 -44 2 -49 7 40 -102 65 28 17 -41 14 -16
0000e0 21 ed 09 e5 08 d6 f1 22 7f cd dd 13 17 e1 03 04
       33 -19 9 -27 8 -42 -15 34 127 -51 -35 19 23 -31 3 4
0000f0 24 a6 d3 e0 32 b5 0d e8 d8 32 08 17 0d b6 5f 35
       36 -90 -45 -32 50 -75 13 -24 -40 50 8 23 13 -74 95 53

fuse_attr_39 i1 [48, 1, 1, 16]
000000 06 20 e1 04 16 b4 7f e4 e8 e7 00 19 e7 fe e9 de
       6 32 -31 4 22 -76 127 -28 -24 -25 0 25 -25 -2 -23 -34
000010 22 ea da 02 03 0e 1a f9 fd 81 39 a9 5c 11 01 cf
       34 -22 -38 2 3 14 26 -7 -3 -127 57 -87 92 17 1 -49
000020 f6 d6 0a 01 7f 07 ef d7 fd 09 06 04 03 fd 00 0c
       -10 -42 10 1 127 7 -17 -41 -3 9 6 4 3 -3 0 12
000030 08 3f f9 0d 0a fd ef 0e fd c2 fd 81 ff fe fc 10
       8 63 -7 13 10 -3 -17 14 -3 -62 -3 -127 -1 -2 -4 16
000040 ec 9c 4b bf d8 ea 95 b9 fa 77 f8 e1 7f f8 38 3f
       -20 -100 75 -65 -40 -22 -107 -71 -6 119 -8 -31 127 -8 56 63
000050 f5 ce 01 16 fb 0d 15 0e fe 7f f8 16 f5 fd f4 fb
       -11 -50 1 22 -5 13 21 14 -2 127 -8 22 -11 -3 -12 -5
000060 81 02 f7 d9 fd fe fc 0e fb 0f 07 0b f4 c4 fe e2
       -127 2 -9 -39 -3 -2 -4 14 -5 15 7 11 -12 -60 -2 -30
000070 26 25 f0 20 81 ed 09 2e 09 e8 03 09 eb 01 09 e2
       38 37 -16 32 -127 -19 9 46 9 -24 3 9 -21 1 9 -30
000080 03 28 1b fb 04 f0 e1 23 f9 1f f2 2b 81 f4 fd 3d
       3 40 27 -5 4 -16 -31 35 -7 31 -14 43 -127 -12 -3 61
000090 fd 02 c8 78 08 12 fc 0c ea f8 df e7 0e 81 49 31
       -3 2 -56 120 8 18 -4 12 -22 -8 -33 -25 14 -127 73 49
0000a0 7f 24 4d c4 19 f7 34 13 d6 ef 2b 0d d5 ba de 00
       127 36 77 -60 25 -9 52 19 -42 -17 43 13 -43 -70 -34 0
0000b0 ed 7f dd 03 9c c2 08 18 10 16 24 56 c0 ff 19 d3
       -19 127 -35 3 -100 -62 8 24 16 22 36 86 -64 -1 25 -45
0000c0 0a 1e f2 e3 f5 00 0c f2 f9 0a 38 10 0d eb 01 7f
       10 30 -14 -29 -11 0 12 -14 -7 10 56 16 13 -21 1 127
0000d0 ff 09 03 d0 f5 ef ee e1 1c 07 0b f1 08 39 81 f6
       -1 9 3 -48 -11 -17 -18 -31 28 7 11 -15 8 57 -127 -10
0000e0 7f 15 03 2f 04 e8 01 f7 04 09 fd 1a f4 3e 03 00
       127 21 3 47 4 -24 1 -9 4 9 -3 26 -12 62 3 0
0000f0 f5 43 fe 16 0e 08 ec f5 fe f2 0c 81 02 02 02 0c
       -11 67 -2 22 14 8 -20 -11 -2 -14 12 -127 2 2 2 12

fuse_attr_75 i1 [288, 1, 1, 96]
000000 ef 36 24 58 07 04 33 d9 b8 2a 27 c8 db e3 2c f6
       -17 54 36 88 7 4 51 -39 -72 42 39 -56 -37 -29 44 -10
000010 e7 db ee db ff af fb 11 62 f8 4a c7 00 bb ed 4f
       -25 -37 -18 -37 -1 -81 -5 17 98 -8 74 -57 0 -69 -19 79
000020 16 df d9 f0 7f 5d 30 03 66 29 e1 d3 22 25 3f d9
       22 -33 -39 -16 127 93 48 3 102 41 -31 -45 34 37 63 -39
000030 cd f6 cb 60 b2 0b 05 20 e3 fd f3 0d e5 49 f7 1e
       -51 -10 -53 96 -78 11 5 32 -29 -3 -13 13 -27 73 -9 30
000040 16 0b 08 36 ec 9e e5 ce e0 fa 1a 03 96 1c 15 17
       22 11 8 54 -20 -98 -27 -50 -32 -6 26 3 -106 28 21 23
000050 d4 d3 15 3a e3 cf 26 2f fb 10 2a fe 07 fb 2b 0a
       -44 -45 21 58 -29 -49 38 47 -5 16 42 -2 7 -5 43 10
000060 ec 49 ef 0a 2a 2b df f3 da 30 5b e1 d9 e6 0c f6
       -20 73 -17 10 42 43 -33 -13 -38 48 91 -31 -39 -26 12 -10
000070 ce 40 df 1a 20 ba f5 ea 5a f2 15 e3 24 be 19 22
       -50 64 -33 26 32 -70 -11 -22 90 -14 21 -29 36 -66 25 34
000080 31 b8 d7 f6 26 2b 2f 16 62 3a d5 c2 06 0a 3b e0
       49 -72 -41 -10 38 43 47 22 98 58 -43 -62 6 10 59 -32
000090 07 c6 b7 7f cf 27 2c 08 d7 0c cd 13 15 33 e0 3e
       7 -58 -73 127 -49 39 44 8 -41 12 -51 19 21 51 -32 62
0000a0 1a e3 04 16 3b da e8 c0 c8 13 dc 1d b0 de 07 e1
       26 -29 4 22 59 -38 -24 -64 -56 19 -36 29 -80 -34 7 -31
0000b0 cb f6 32 2b d8 f1 29 33 de 02 0b fa 07 ce 2e 26
       -53 -10 50 43 -40 -15 41 51 -34 2 11 -6 7 -50 46 38
0000c0 ec f6 7f dc f5 19 f4 fe dd 16 16 0f 4a f9 0f fd
       -20 -10 127 -36 -11 25 -12 -2 -35 22 22 15 74 -7 15 -3
0000d0 f4 dd 2a 0c 37 24 f2 dc 1e f9 e4 0a 19 f7 24 fd
       -12 -35 42 12 55 36 -14 -36 30 -7 -28 10 25 -9 36 -3
0000e0 03 e8 18 dd d5 06 e4 0d fa f8 fd b4 ed 0c 2a ef
       3 -24 24 -35 -43 6 -28 13 -6 -8 -3 -76 -19 12 42 -17
0000f0 ee f0 f2 42 fe 0d 19 f9 d9 03 e5 16 1a 2d f9 d3
       -18 -16 -14 66 -2 13 25 -7 -39 3 -27 22 26 45 -7 -45

fuse_attr_63 i1 [192, 1, 1, 48]
000000 03 05 fe a7 da e3 0c 43 0c 0a 48 13 ec 4c da 30
       3 5 -2 -89 -38 -29 12 67 12 10 72 19 -20 76 -38 48
000010 1f b6 ee fe f6 05 1a 2d 30 e9 2a 0a 1f 26 18 07
       31 -74 -18 -2 -10 5 26 45 48 -23 42 10 31 38 24 7
000020 fb ea d3 fb f5 f5 04 08 e5 ee 7f f9 0c 09 ff 25
       -5 -22 -45 -5 -11 -11 4 8 -27 -18 127 -7 12 9 -1 37
000030 03 20 f8 f8 d9 ea f6 3f f7 03 3d 0f 0f 3e 11 00
       3 32 -8 -8 -39 -22 -10 63 -9 3 61 15 15 62 17 0
000040 0d a7 f6 22 f2 f1 f2 05 0e d7 5a fb 38 19 20 ee
       13 -89 -10 34 -14 -15 -14 5 14 -41 90 -5 56 25 32 -18
000050 ea fa 10 0a f3 df f4 0d 05 dd 7f e6 05 11 f3 0d
       -22 -6 16 10 -13 -33 -12 13 5 -35 127 -26 5 17 -13 13
000060 51 d4 ff d8 0b d0 fc cf a1 02 f0 23 dd f9 b7 f9
       81 -44 -1 -40 11 -48 -4 -49 -95 2 -16 35 -35 -7 -73 -7
000070 25 3f 22 18 49 92 d7 1a 16 9f 2c 06 0e 2d 9d fc
       37 63 34 24 73 -110 -41 26 22 -97 44 6 14 45 -99 -4
000080 2c 81 f8 d8 05 1c 2c 16 eb 07 24 42 33 0c 41 f6
       44 -127 -8 -40 5 28 44 22 -21 7 36 66 51 12 65 -10
000090 ec ff d9 df d3 cb fc 1b 19 3c 2c 37 d1 7f aa 27
       -20 -1 -39 -33 -45 -53 -4 27 25 60 44 55 -47 127 -86 39
0000a0 03 bd bb e9 e7 c0 0a 05 24 c2 5c 3f 65 26 00 e5
       3 -67 -69 -23 -25 -64 10 5 36 -62 92 63 101 38 0 -27
0000b0 f1 12 9c ec d7 eb ec 33 07 f5 34 1a cd 6f f2 35
       -15 18 -100 -20 -41 -21 -20 51 7 -11 52 26 -51 111 -14 53
0000c0 e8 31 c8 b8 29 0d 0c ef 3e 2c ff 1c c7 ef f6 26
       -24 49 -56 -72 41 13 12 -17 62 44 -1 28 -57 -17 -10 38
0000d0 f3 b5 a8 e9 19 dc 3e 57 18 a8 54 2b 7f d2 3b a6
       -13 -75 -88 -23 25 -36 62 87 24 -88 84 43 127 -46 59 -90
0000e0 af e5 d5 0c 0d 20 c8 1b 36 d5 1f 08 31 08 ec 0e
       -81 -27 -43 12 13 32 -56 27 54 -43 31 8 49 8 -20 14
0000f0 fd 81 1c 1e 7d 88 fd 12 bc c6 26 7a db 12 e8 22
       -3 -127 28 30 125 -120 -3 18 -68 -58 38 122 -37 18 -24 34

fuse_attr_38 i1 [16, 1, 1, 48]
000000 81 52 26 92 e9 ae fc 13 0e 03 0b 13 0a fe e7 09
       -127 82 38 -110 -23 -82 -4 19 14 3 11 19 10 -2 -25 9
000010 0b f0 fe 00 00 f4 db 02 fa fd 03 f5 02 fe fd 04
       11 -16 -2 0 0 -12 -37 2 -6 -3 3 -11 2 -2 -3 4
000020 32 04 03 12 14 05 fc ff f2 06 03 ff fa f3 f4 00
       50 4 3 18 20 5 -4 -1 -14 6 3 -1 -6 -13 -12 0
000030 06 01 0c 31 71 81 ac d5 fd da 10 5a b7 fc 10 14
       6 1 12 49 113 -127 -84 -43 -3 -38 16 90 -73 -4 16 20
000040 d2 04 1e 00 30 12 4d 07 e8 2d c8 3f 02 32 39 20
       -46 4 30 0 48 18 77 7 -24 45 -56 63 2 50 57 32
000050 1b 14 ef eb 29 fe 1e 12 f5 08 09 22 fb ff 17 00
       27 20 -17 -21 41 -2 30 18 -11 8 9 34 -5 -1 23 0
000060 d3 44 81 f7 d3 f4 22 f6 b4 f6 02 1d e9 13 2f 03
       -45 68 -127 -9 -45 -12 34 -10 -76 -10 2 29 -23 19 47 3
000070 f8 20 0a 07 03 fe fd f1 fb 03 ff 06 10 04 13 06
       -8 32 10 7 3 -2 -3 -15 -5 3 -1 6 16 4 19 6
000080 0d 07 f8 f8 fd 00 fa 03 ff fd ed 00 fe 02 04 00
       13 7 -8 -8 -3 0 -6 3 -1 -3 -19 0 -2 2 4 0
000090 7f c5 4c db f4 ed 0a fa a1 eb 03 ee ef 3b ca fc
       127 -59 76 -37 -12 -19 10 -6 -95 -21 3 -18 -17 59 -54 -4
0000a0 10 e0 0e 0a 0e fd f3 33 fd 02 ff f6 fa 00 fe 08
       16 -32 14 10 14 -3 -13 51 -3 2 -1 -10 -6 0 -2 8
0000b0 09 00 06 01 0c f8 fa 0b fe 08 f9 05 05 fe 02 00
       9 0 6 1 12 -8 -6 11 -2 8 -7 5 5 -2 2 0
0000c0 f9 f7 03 4e a3 24 f5 7f fa fa 01 0f f5 fd 08 06
       -7 -9 3 78 -93 36 -11 127 -6 -6 1 15 -11 -3 8 6
0000d0 04 0b 00 fb 03 04 0d 07 fb 07 f9 07 05 07 03 02
       4 11 0 -5 3 4 13 7 -5 7 -7 7 5 7 3 2
0000e0 0a 03 ff 04 07 01 08 02 ff 00 03 05 fa 06 02 00
       10 3 -1 4 7 1 8 2 -1 0 3 5 -6 6 2 0
0000f0 07 0f 01 c2 e0 2a cd b4 fd ee 12 0e d5 fc 04 f5
       7 15 1 -62 -32 42 -51 -76 -3 -18 18 14 -43 -4 4 -11

fuse_attr_71 i1 [96, 1, 1, 480]
000000 ad 4a 24 15 30 52 35 eb c7 2b 2d 05 13 e4 e3 08
       -83 74 36 21 48 82 53 -21 -57 43 45 5 19 -28 -29 8
000010 f2 db 09 4f ca 01 03 2b da 02 f4 00 01 ea 1e 3f
       -14 -37 9 79 -54 1 3 43 -38 2 -12 0 1 -22 30 63
000020 03 e3 0a 24 eb 97 08 f8 fb 19 f3 0d 47 1a fd df
       3 -29 10 36 -21 -105 8 -8 -5 25 -13 13 71 26 -3 -33
000030 09 da 05 fa c5 3e c6 1f f5 cd f6 29 e1 d3 d1 e0
       9 -38 5 -6 -59 62 -58 31 -11 -51 -10 41 -31 -45 -47 -32
000040 ff ff 26 ec ed 0a 05 15 27 16 f7 d4 c5 18 ea 2e
       -1 -1 38 -20 -19 10 5 21 39 22 -9 -44 -59 24 -22 46
000050 da 13 ff 2a 03 ed f1 42 f6 c5 e9 d2 15 d2 dd 24
       -38 19 -1 42 3 -19 -15 66 -10 -59 -23 -46 21 -46 -35 36
000060 13 09 c4 fb d3 b1 e0 07 ef 05 cb 22 eb 2e 2b d9
       19 9 -60 -5 -45 -79 -32 7 -17 5 -53 34 -21 46 43 -39
000070 12 10 04 03 f2 3b f0 0f f3 31 20 e4 11 49 ef 17
       18 16 4 3 -14 59 -16 15 -13 49 32 -28 17 73 -17 23
000080 fb 14 ea 29 43 20 1e 1a fb fd ad 3e 35 a0 ed fb
       -5 20 -22 41 67 32 30 26 -5 -3 -83 62 53 -96 -19 -5
000090 3b 1c fd de 03 e7 fd 00 2d db 27 dc ed 23 3a 2e
       59 28 -3 -34 3 -25 -3 0 45 -37 39 -36 -19 35 58 46
0000a0 ec f3 d8 b5 f4 ea f3 eb e4 22 0e c8 d4 3a 09 cd
       -20 -13 -40 -75 -12 -22 -13 -21 -28 34 14 -56 -44 58 9 -51
0000b0 e7 ec 10 c7 f3 ca e0 08 ff 01 12 f7 f1 07 03 f5
       -25 -20 16 -57 -13 -54 -32 8 -1 1 18 -9 -15 7 3 -11
0000c0 f3 e5 08 e0 3b 1e 0f b6 35 07 e5 25 d8 f4 92 df
       -13 -27 8 -32 59 30 15 -74 53 7 -27 37 -40 -12 -110 -33
0000d0 dc cd 04 f1 25 01 fd 43 01 1a d4 de 10 18 08 7f
       -36 -51 4 -15 37 1 -3 67 1 26 -44 -34 16 24 8 127
0000e0 25 20 39 f1 f7 23 07 06 f7 04 d6 f9 1f 4a 00 0f
       37 32 57 -15 -9 35 7 6 -9 4 -42 -7 31 74 0 15
0000f0 3b ea 22 c5 3e e6 f9 0f ef 02 25 12 fe 1e 04 09
       59 -22 34 -59 62 -26 -7 15 -17 2 37 18 -2 30 4 9

fuse_attr_52 i1 [1, 5, 5, 120]
000000 f6 07 0e ee 02 fb 06 f4 f7 fc f7 fd ee f1 ee 00
       -10 7 14 -18 2 -5 6 -12 -9 -4 -9 -3 -18 -15 -18 0
000010 eb da fa 1a f0 06 03 f1 10 fa 04 f1 1d fa 0b 0a
       -21 -38 -6 26 -16 6 3 -15 16 -6 4 -15 29 -6 11 10
000020 00 ec 0f 15 0a 0d 1a f2 0a ef 20 ef fe f6 17 02
       0 -20 15 21 10 13 26 -14 10 -17 32 -17 -2 -10 23 2
000030 04 00 40 16 09 fb 01 0c ee f7 e5 0e f9 fd 04 04
       4 0 64 22 9 -5 1 12 -18 -9 -27 14 -7 -3 4 4
000040 06 ed ef 02 e0 02 fa 05 00 24 ea f1 14 fd d9 01
       6 -19 -17 2 -32 2 -6 5 0 36 -22 -15 20 -3 -39 1
000050 f7 fa 18 f6 fa e4 03 0f f4 f0 04 f5 2a 0f e7 fa
       -9 -6 24 -10 -6 -28 3 15 -12 -16 4 -11 42 15 -25 -6
000060 27 02 06 00 02 fd f0 cc 01 10 cc 0a 08 02 e0 f3
       39 2 6 0 2 -3 -16 -52 1 16 -52 10 8 2 -32 -13
000070 10 13 00 07 e2 f7 f7 00 e4 fc fe f7 fc 02 fb 06
       16 19 0 7 -30 -9 -9 0 -28 -4 -2 -9 -4 2 -5 6
000080 03 04 0a f6 24 03 fd f5 10 0d 08 f2 0f 06 03 12
       3 4 10 -10 36 3 -3 -11 16 13 8 -14 15 6 3 18
000090 f3 ef f5 17 0c 06 03 06 0e 02 13 02 12 0e ed 13
       -13 -17 -11 23 12 6 3 6 14 2 19 2 18 14 -19 19
0000a0 0f f1 30 f8 06 f9 12 07 05 f5 01 e3 dc ff f5 07
       15 -15 48 -8 6 -7 18 7 5 -11 1 -29 -36 -1 -11 7
0000b0 00 f5 01 17 ff 17 0c 0e d6 de fa 09 fd 0b 0f da
       0 -11 1 23 -1 23 12 14 -42 -34 -6 9 -3 11 15 -38
0000c0 df 19 0f f2 24 fe f9 0e fc f4 fc ff 06 1a 0c 04
       -33 25 15 -14 36 -2 -7 14 -4 -12 -4 -1 6 26 12 4
0000d0 25 f5 fa 00 fc fc 02 e7 20 f9 0d 0c 04 ec f6 b8
       37 -11 -6 0 -4 -4 2 -25 32 -7 13 12 4 -20 -10 -72
0000e0 d8 08 15 f6 f8 03 eb d5 f4 ff ed fb fa 0d 52 01
       -40 8 21 -10 -8 3 -21 -43 -12 -1 -19 -5 -6 13 82 1
0000f0 1d 01 0b e6 ee f9 fd 13 f8 02 ff fb e0 ea fe fc
       29 1 11 -26 -18 -7 -3 19 -8 2 -1 -5 -32 -22 -2 -4

fuse_attr_49 i1 [1, 3, 3, 144]
000000 f4 ed fa 12 01 da df 1b db ee dd f0 06 f8 27 94
       -12 -19 -6 18 1 -38 -33 27 -37 -18 -35 -16 6 -8 39 -108
000010 0a 07 eb f7 e3 ec fc fb 19 0c d7 08 f6 01 1e f4
       10 7 -21 -9 -29 -20 -4 -5 25 12 -41 8 -10 1 30 -12
000020 f4 fb 4f f7 e0 2f 02 0b e9 30 03 28 eb df fc ed
       -12 -5 79 -9 -32 47 2 11 -23 48 3 40 -21 -33 -4 -19
000030 f7 f0 fc 14 f0 04 d5 e4 1e f3 f3 10 f8 0c f4 f6
       -9 -16 -4 20 -16 4 -43 -28 30 -13 -13 16 -8 12 -12 -10
000040 f2 ee 14 09 e5 06 ea fe f7 03 e0 02 f5 e7 f7 04
       -14 -18 20 9 -27 6 -22 -2 -9 3 -32 2 -11 -25 -9 4
000050 0f 0a 09 fa 52 eb d6 f7 24 fa 1f e1 19 f3 f5 b2
       15 10 9 -6 82 -21 -42 -9 36 -6 31 -31 25 -13 -11 -78
000060 da ed 01 7b fb 01 2c 11 04 c4 ab 22 0c ec ec 78
       -38 -19 1 123 -5 1 44 17 4 -60 -85 34 12 -20 -20 120
000070 33 e1 dd d7 2c 17 e0 20 f1 f2 02 9e de 12 1d 31
       51 -31 -35 -41 44 23 -32 32 -15 -14 2 -98 -34 18 29 49
000080 81 e1 d2 f8 e4 db c9 59 eb 00 00 00 00 00 00 00
       -127 -31 -46 -8 -28 -37 -55 89 -21 0 0 0 0 0 0 0
000090 ce de 6c 0e 09 e4 de d7 1f ed e9 e4 7f e4 93 e3
       -50 -34 108 14 9 -28 -34 -41 31 -19 -23 -28 127 -28 -109 -29
0000a0 12 ff c2 5c c6 d3 0b f3 f3 d9 9e f5 c5 14 7f f0
       18 -1 -62 92 -58 -45 11 -13 -13 -39 -98 -11 -59 20 127 -16
0000b0 0d dc 15 c0 03 09 f8 cd 9f 81 7f c2 cf ef cd d1
       13 -36 21 -64 3 9 -8 -51 -97 -127 127 -62 -49 -17 -51 -47
0000c0 1d d6 f9 17 e3 f6 a6 27 7f 26 3e 02 7f 00 0f f6
       29 -42 -7 23 -29 -10 -90 39 127 38 62 2 127 0 15 -10
0000d0 18 98 ee bb 81 f5 55 2e f9 ad b5 0a ec 02 c8 63
       24 -104 -18 -69 -127 -11 85 46 -7 -83 -75 10 -20 2 -56 99
0000e0 e7 09 e9 a5 e5 d0 5e 7f bb 09 ec 53 6b cb ec 81
       -25 9 -23 -91 -27 -48 94 127 -69 9 -20 83 107 -53 -20 -127
0000f0 81 fe 7f 13 44 49 c2 7f 10 aa 5f 82 f6 c4 43 81
       -127 -2 127 19 68 73 -62 127 16 -86 95 -126 -10 -60 67 -127

fuse_attr_62 i1 [48, 1, 1, 240]
000000 c8 c3 17 eb 52 15 16 18 fb 81 e4 d8 24 be f7 21
       -56 -61 23 -21 82 21 22 24 -5 -127 -28 -40 36 -66 -9 33
000010 27 3d 40 fb 2d 43 21 d8 26 34 c4 40 45 eb fa 20
       39 61 64 -5 45 67 33 -40 38 52 -60 64 69 -21 -6 32
000020 f1 22 03 3e 2f 1f 01 06 e7 ef 8d f2 42 ff d9 b3
       -15 34 3 62 47 31 1 6 -25 -17 -115 -14 66 -1 -39 -77
000030 fd 04 b4 0e 0a e7 04 c7 b9 f0 d3 fe 06 c3 16 e5
       -3 4 -76 14 10 -25 4 -57 -71 -16 -45 -2 6 -61 22 -27
000040 d8 08 c2 be 14 10 31 06 0a 01 00 f7 d5 dc 2d f6
       -40 8 -62 -66 20 16 49 6 10 1 0 -9 -43 -36 45 -10
000050 fb 18 ef ff db 0b df cb fa 14 11 0b 40 c8 01 ee
       -5 24 -17 -1 -37 11 -33 -53 -6 20 17 11 64 -56 1 -18
000060 04 e8 00 07 09 21 d9 29 1b a6 1b d2 ca 0a b8 2b
       4 -24 0 7 9 33 -39 41 27 -90 27 -46 -54 10 -72 43
000070 27 0b 07 f0 e4 0d 00 ed f3 f8 0a 0d 0b fd d5 20
       39 11 7 -16 -28 13 0 -19 -13 -8 10 13 11 -3 -43 32
000080 fb 12 f5 eb 19 fc fa 0e ec 0d f5 03 f3 f9 ff f5
       -5 18 -11 -21 25 -4 -6 14 -20 13 -11 3 -13 -7 -1 -11
000090 f5 00 ee 10 db 12 fb 01 17 17 1a 04 1d 06 03 fb
       -11 0 -18 16 -37 18 -5 1 23 23 26 4 29 6 3 -5
0000a0 0c fd 14 f8 1a 03 02 00 01 07 02 0e f8 fd 05 0c
       12 -3 20 -8 26 3 2 0 1 7 2 14 -8 -3 5 12
0000b0 ff f9 03 12 fb f6 f6 05 02 fe 04 04 fe f4 0f fa
       -1 -7 3 18 -5 -10 -10 5 2 -2 4 4 -2 -12 15 -6
0000c0 fd 16 f2 fe 00 fe fa 0d 04 01 03 01 fb fa fe fc
       -3 22 -14 -2 0 -2 -6 13 4 1 3 1 -5 -6 -2 -4
0000d0 02 04 08 05 00 00 00 00 00 00 00 00 00 00 00 00
       2 4 8 5 0 0 0 0 0 0 0 0 0 0 0 0
0000e0 00 00 00 00 00 00 00 00 00 00 00 00 00 00 00 00
       0 0 0 0 0 0 0 0 0 0 0 0 0 0 0 0
0000f0 e8 f6 81 11 0a f9 e8 fd 02 e6 0d e3 03 20 07 14
       -24 -10 -127 17 10 -7 -24 -3 2 -26 13 -29 3 32 7 20

fuse_attr_55 i1 [1, 7, 7, 144]
000000 01 fb fc f7 04 ff fb ff fb fd 01 02 03 fc ff 06
       1 -5 -4 -9 4 -1 -5 -1 -5 -3 1 2 3 -4 -1 6
000010 ff 05 03 01 fe f8 02 00 02 06 f8 05 fb ff 03 04
       -1 5 3 1 -2 -8 2 0 2 6 -8 5 -5 -1 3 4
000020 00 f9 00 07 06 06 f9 00 fa 05 06 f3 fd fd fc ff
       0 -7 0 7 6 6 -7 0 -6 5 6 -13 -3 -3 -4 -1
000030 05 04 f1 05 0f 02 ff 00 00 fe 02 00 01 f9 ff 05
       5 4 -15 5 15 2 -1 0 0 -2 2 0 1 -7 -1 5
000040 f5 10 fa ff f4 0a 02 06 f6 0c 0e 06 15 0e 29 f8
       -11 16 -6 -1 -12 10 2 6 -10 12 14 6 21 14 41 -8
000050 06 06 ee 05 0e e9 07 f5 0a fd ea f4 01 08 f1 fe
       6 6 -18 5 14 -23 7 -11 10 -3 -22 -12 1 8 -15 -2
000060 16 0b 04 11 0c 04 ff ee 08 15 07 ff fa 07 e4 fe
       22 11 4 17 12 4 -1 -18 8 21 7 -1 -6 7 -28 -2
000070 fe ef 0b 04 25 f0 ff 10 16 fe e8 04 ee 02 00 00
       -2 -17 11 4 37 -16 -1 16 22 -2 -24 4 -18 2 0 0
000080 00 00 00 00 00 00 00 00 00 00 00 00 00 00 00 00
       0 0 0 0 0 0 0 0 0 0 0 0 0 0 0 0
000090 07 02 fe fa 01 03 fd ff 0a 02 f7 01 02 05 0b 02
       7 2 -2 -6 1 3 -3 -1 10 2 -9 1 2 5 11 2
0000a0 f6 fb ff 04 04 03 fd fe fe ff 0b fd 05 03 01 05
       -10 -5 -1 4 4 3 -3 -2 -2 -1 11 -3 5 3 1 5
0000b0 06 fb 02 02 00 03 02 ef 02 07 fb 02 03 f8 01 fa
       6 -5 2 2 0 3 2 -17 2 7 -5 2 3 -8 1 -6
0000c0 05 04 08 f5 04 05 ff fd 03 ff 06 06 08 fe 04 ff
       5 4 8 -11 4 5 -1 -3 3 -1 6 6 8 -2 4 -1
0000d0 01 0c f4 fa fb 00 e7 0a fa e3 f8 f1 0c f5 fd 01
       1 12 -12 -6 -5 0 -25 10 -6 -29 -8 -15 12 -11 -3 1
0000e0 03 fb fc 04 fc 0f 09 fa fd 01 ff f3 e9 02 0c 14
       3 -5 -4 4 -4 15 9 -6 -3 1 -1 -13 -23 2 12 20
0000f0 f3 05 00 0c 05 00 01 14 11 04 14 2b 02 10 fc 02
       -13 5 0 12 5 0 1 20 17 4 20 43 2 16 -4 2

fuse_attr_66 i1 [240, 1, 1, 48]
000000 0b df 08 df 22 e9 e3 f5 07 f0 17 fd ee f6 00 e7
       11 -33 8 -33 34 -23 -29 -11 7 -16 23 -3 -18 -10 0 -25
000010 08 48 43 e6 eb fe f9 3a 2c 6e b5 27 ae d9 ba 09
       8 72 67 -26 -21 -2 -7 58 44 110 -75 39 -82 -39 -70 9
000020 fe d6 d6 c6 0d 1b 02 d5 f6 f3 fc 29 ec d7 1f 81
       -2 -42 -42 -58 13 27 2 -43 -10 -13 -4 41 -20 -41 31 -127
000030 14 eb 10 07 12 2f fd 13 28 f9 df f8 47 0c 24 1e
       20 -21 16 7 18 47 -3 19 40 -7 -33 -8 71 12 36 30
000040 f8 27 45 00 e7 13 07 01 11 1b c2 81 f0 c1 18 04
       -8 39 69 0 -25 19 7 1 17 27 -62 -127 -16 -63 24 4
000050 02 11 1f f3 21 2d fe f5 c0 ed 12 02 ec 3e 1d 3e
       2 17 31 -13 33 45 -2 -11 -64 -19 18 2 -20 62 29 62
000060 0f ee 02 b0 3f 11 d1 c0 b9 d0 07 e0 3e 46 40 d6
       15 -18 2 -80 63 17 -47 -64 -71 -48 7 -32 62 70 64 -42
000070 03 f3 bd fa 19 e1 fd e8 0d 02 2a b2 4d 10 2b 21
       3 -13 -67 -6 25 -31 -3 -24 13 2 42 -78 77 16 43 33
000080 e6 dc b4 23 14 fb bf 0e dc 15 7f f2 16 50 c4 e9
       -26 -36 -76 35 20 -5 -65 14 -36 21 127 -14 22 80 -60 -23
000090 ca d6 3d 19 f4 f1 24 1e 16 e8 d9 e5 1d 14 4b f1
       -54 -42 61 25 -12 -15 36 30 22 -24 -39 -27 29 20 75 -15
0000a0 d0 e6 30 14 0d 09 fe 25 ee 14 13 08 09 b0 23 d8
       -48 -26 48 20 13 9 -2 37 -18 20 19 8 9 -80 35 -40
0000b0 b9 eb 0c 38 c6 35 e6 0d 5b 7f 06 99 04 bf ff e2
       -71 -21 12 56 -58 53 -26 13 91 127 6 -103 4 -65 -1 -30
0000c0 be df e0 35 09 e9 b7 0f e3 cd da d1 bf 06 13 91
       -66 -33 -32 53 9 -23 -73 15 -29 -51 -38 -47 -65 6 19 -111
0000d0 cd 07 df f3 42 14 2d df 9f 21 00 d8 16 e3 1f 01
       -51 7 -33 -13 66 20 45 -33 -97 33 0 -40 22 -29 31 1
0000e0 e8 38 f6 eb 42 04 dd 08 81 c9 03 f3 26 29 3c 1a
       -24 56 -10 -21 66 4 -35 8 -127 -55 3 -13 38 41 60 26
0000f0 ce ed 16 f7 0b 26 d9 fa f0 c0 fe 08 40 f8 1a 19
       -50 -19 22 -9 11 38 -39 -6 -16 -64 -2 8 64 -8 26 25

fuse_attr_34 i1 [1, 3, 3, 16]
000000 0a fc d0 ff fe ec 09 00 00 e1 00 fd 03 ff f2 00
       10 -4 -48 -1 -2 -20 9 0 0 -31 0 -3 3 -1 -14 0
000010 28 df c2 14 de 72 25 0d 00 ed 00 d6 06 0f d2 0e
       40 -33 -62 20 -34 114 37 13 0 -19 0 -42 6 15 -46 14
000020 fa f8 d2 ff 03 f1 fb 01 00 ff 00 0b c1 00 fc 0d
       -6 -8 -46 -1 3 -15 -5 1 0 -1 0 11 -63 0 -4 13
000030 fe 0a f5 06 ef ee e6 1c 00 7f 00 10 e3 0f 0a 0c
       -2 10 -11 6 -17 -18 -26 28 0 127 0 16 -29 15 10 12
000040 81 7f 7f 81 7f 7f 81 81 00 24 00 7f 01 81 7f 81
       -127 127 127 -127 127 127 -127 -127 0 36 0 127 1 -127 127 -127
000050 1d ed d7 0a ed f4 30 17 00 f5 00 de 7f 07 f1 be
       29 -19 -41 10 -19 -12 48 23 0 -11 0 -34 127 7 -15 -66
000060 05 ff d3 ff fa ff 0a ff 00 e7 00 fa f8 0d fe 01
       5 -1 -45 -1 -6 -1 10 -1 0 -25 0 -6 -8 13 -2 1
000070 25 f7 d6 0e f5 ff 18 0c 00 f4 00 fe 0a d6 fb 0b
       37 -9 -42 14 -11 -1 24 12 0 -12 0 -2 10 -42 -5 11
000080 f7 fe d5 ff ff fc fe 00 00 fc 00 fa e3 0a 00 0b
       -9 -2 -43 -1 -1 -4 -2 0 0 -4 0 -6 -29 10 0 11

fuse_attr_53 i1 [24, 1, 1, 120]
000000 5c 12 de f9 3a cc 20 09 f3 cd 3e e9 60 4d f8 2d
       92 18 -34 -7 58 -52 32 9 -13 -51 62 -23 96 77 -8 45
000010 08 b0 e2 e8 39 f4 3c 06 b0 f9 0d 00 19 da c2 0f
       8 -80 -30 -24 57 -12 60 6 -80 -7 13 0 25 -38 -62 15
000020 29 b5 c5 0a ea ee f2 dd 3a 0a 0f f0 06 7f 30 cc
       41 -75 -59 10 -22 -18 -14 -35 58 10 15 -16 6 127 48 -52
000030 1a 0f 25 3b c8 d3 19 a3 e8 0f cd d9 0c db 31 dd
       26 15 37 59 -56 -45 25 -93 -24 15 -51 -39 12 -37 49 -35
000040 b7 c9 49 6a 0e 2e 2c c3 ed f8 0b ae ff 4a 20 d4
       -73 -55 73 106 14 46 44 -61 -19 -8 11 -82 -1 74 32 -44
000050 1e 11 da 0f 39 90 d5 0b 06 cd 00 e8 16 ea a5 db
       30 17 -38 15 57 -112 -43 11 6 -51 0 -24 22 -22 -91 -37
000060 11 fa 0a 00 f1 ef 06 f6 e7 de cf 08 fb e7 e8 ea
       17 -6 10 0 -15 -17 6 -10 -25 -34 -49 8 -5 -25 -24 -22
000070 fa ec db 05 2e 14 00 00 cb 1a b7 14 3a e5 01 40
       -6 -20 -37 5 46 20 0 0 -53 26 -73 20 58 -27 1 64
000080 db e6 ed c2 cc 4e 0e f6 fa e8 48 12 7f 07 30 cd
       -37 -26 -19 -62 -52 78 14 -10 -6 -24 72 18 127 7 48 -51
000090 ea fb e4 dc fd da d7 e5 d7 2b 03 fb ea 1d 2b e0
       -22 -5 -28 -36 -3 -38 -41 -27 -41 43 3 -5 -22 29 43 -32
0000a0 d5 fd 91 54 1a e4 21 29 02 2f 16 00 e8 e6 4b 3b
       -43 -3 -111 84 26 -28 33 41 2 47 22 0 -24 -26 75 59
0000b0 0d ce fb 8a f4 27 f3 03 15 01 e4 fa cb f8 e4 e6
       13 -50 -5 -118 -12 39 -13 3 21 1 -28 -6 -53 -8 -28 -26
0000c0 f0 e8 0f f0 f0 0b ef 10 1c 08 e6 0a bc f8 f8 f4
       -16 -24 15 -16 -16 11 -17 16 28 8 -26 10 -68 -8 -8 -12
0000d0 eb f2 f7 d5 d7 42 12 20 e5 10 23 11 21 0f 0b 0b
       -21 -14 -9 -43 -41 66 18 32 -27 16 35 17 33 15 11 11
0000e0 16 f6 fb fe e4 fd 0c 0f 1e 0d 12 02 e3 fe 00 00
       22 -10 -5 -2 -28 -3 12 15 30 13 18 2 -29 -2 0 0
0000f0 75 f0 21 0f f4 e2 3b eb 7f 0f eb f0 f0 cd ef fe
       117 -16 33 15 -12 -30 59 -21 127 15 -21 -16 -16 -51 -17 -2

fuse_attr_72 i1 [384, 1, 1, 96]
000000 f5 10 4e 29 02 28 e7 f7 28 16 ee 0c f0 07 fc f4
       -11 16 78 41 2 40 -25 -9 40 22 -18 12 -16 7 -4 -12
000010 db ea 1c fa 02 0b 0e c8 07 1d e4 f4 7f 10 c7 14
       -37 -22 28 -6 2 11 14 -56 7 29 -28 -12 127 16 -57 20
000020 42 d4 b0 f9 e8 e2 e8 e8 03 27 f1 f9 b1 21 04 2b
       66 -44 -80 -7 -24 -30 -24 -24 3 39 -15 -7 -79 33 4 43
000030 09 14 23 2e cf 27 cf ec fb 46 d7 03 26 e7 0f 0b
       9 20 35 46 -49 39 -49 -20 -5 70 -41 3 38 -25 15 11
000040 de 0f e9 fa 10 17 dc fc d7 dc 19 ef 16 18 28 ed
       -34 15 -23 -6 16 23 -36 -4 -41 -36 25 -17 22 24 40 -19
000050 4d 4b 5c de 1f ea 08 f6 0d d0 e6 e1 09 e9 2a 1a
       77 75 92 -34 31 -22 8 -10 13 -48 -26 -31 9 -23 42 26
000060 23 5b 2a 06 56 0c 10 98 fd 5a 00 ff 6d d7 f8 2f
       35 91 42 6 86 12 16 -104 -3 90 0 -1 109 -41 -8 47
000070 08 e8 34 f7 33 1a f5 fd e4 df eb c3 16 f5 e2 32
       8 -24 52 -9 51 26 -11 -3 -28 -33 -21 -61 22 -11 -30 50
000080 1a 31 f4 c8 a0 1e b9 bf 1c 10 2e ec 50 3e 33 d9
       26 49 -12 -56 -96 30 -71 -65 28 16 46 -20 80 62 51 -39
000090 7f f5 46 66 db b4 2d 46 e4 fb 19 e4 57 c6 09 24
       127 -11 70 102 -37 -76 45 70 -28 -5 25 -28 87 -58 9 36
0000a0 4d 15 fc d4 1f 0f f3 b5 33 f6 79 fe a5 01 cb f2
       77 21 -4 -44 31 15 -13 -75 51 -10 121 -2 -91 1 -53 -14
0000b0 fb 0d 35 f1 2c 0a c2 32 f7 ec b6 a1 d9 cd fe 17
       -5 13 53 -15 44 10 -62 50 -9 -20 -74 -95 -39 -51 -2 23
0000c0 e5 1e 40 f0 30 e9 f5 cc ca 1d 34 05 17 06 e9 0b
       -27 30 64 -16 48 -23 -11 -52 -54 29 52 5 23 6 -23 11
0000d0 a7 f1 1e e4 14 26 24 d8 e6 a5 56 f3 45 e4 1e e4
       -89 -15 30 -28 20 38 36 -40 -26 -91 86 -13 69 -28 30 -28
0000e0 53 0c 0c 98 32 ff af e9 05 2c 4d d7 f1 04 47 f1
       83 12 12 -104 50 -1 -81 -23 5 44 77 -41 -15 4 71 -15
0000f0 2c 06 07 66 dd 35 09 91 ea 00 1d 00 56 fd 20 ed
       44 6 7 102 -35 53 9 -111 -22 0 29 0 86 -3 32 -19

fuse_attr_41 i1 [16, 1, 1, 48]
000000 3d 3c 40 53 07 29 7f 14 5d 01 d4 4d 62 0f 3d f2
       61 60 64 83 7 41 127 20 93 1 -44 77 98 15 61 -14
000010 e6 1d c8 24 07 c9 34 c5 d5 0d da d8 11 2d ea b7
       -26 29 -56 36 7 -55 52 -59 -43 13 -38 -40 17 45 -22 -73
000020 c2 08 e7 0a 10 df f0 f6 11 ec 18 08 27 1f 15 ee
       -62 8 -25 10 16 -33 -16 -10 17 -20 24 8 39 31 21 -18
000030 d3 e6 b1 2d f4 29 f1 d9 f0 00 20 4a dd 3c 07 f7
       -45 -26 -79 45 -12 41 -15 -39 -16 0 32 74 -35 60 7 -9
000040 e3 f7 e0 aa 04 1b 3c 81 01 3f e0 ea cc 10 0c 11
       -29 -9 -32 -86 4 27 60 -127 1 63 -32 -22 -52 16 12 17
000050 d6 cf fb da 0f 08 f5 f7 0a fc f3 d9 e6 0d f8 57
       -42 -49 -5 -38 15 8 -11 -9 10 -4 -13 -39 -26 13 -8 87
000060 81 d8 ff c9 99 c7 5e ce e4 dc 4c f8 61 e4 48 ee
       -127 -40 -1 -55 -103 -57 94 -50 -28 -36 76 -8 97 -28 72 -18
000070 4a 39 da e1 d0 da 12 d4 e8 0d ac 45 b7 2d 1f f1
       74 57 -38 -31 -48 -38 18 -44 -24 13 -84 69 -73 45 31 -15
000080 d9 2a 4c a6 fc cc 4d 14 fa 17 35 21 da d7 03 68
       -39 42 76 -90 -4 -52 77 20 -6 23 53 33 -38 -41 3 104
000090 d2 39 1c 17 e6 20 39 43 41 7f bc 21 47 d3 13 0c
       -46 57 28 23 -26 32 57 67 65 127 -68 33 71 -45 19 12
0000a0 2a 21 ac 22 0d 13 ff f3 0b ed db 09 1b 61 e8 0f
       42 33 -84 34 13 19 -1 -13 11 -19 -37 9 27 97 -24 15
0000b0 fb e3 c5 d2 08 8c 96 0c 1a 22 04 a4 30 24 f8 de
       -5 -29 -59 -46 8 -116 -106 12 26 34 4 -92 48 36 -8 -34
0000c0 08 39 7e 46 26 3c 4d 62 39 dc f2 9b 33 3d 2a e3
       8 57 126 70 38 60 77 98 57 -36 -14 -101 51 61 42 -29
0000d0 06 23 cc 1b 16 e7 3d 44 c7 7f 06 eb b7 ed 14 04
       6 35 -52 27 22 -25 61 68 -57 127 6 -21 -73 -19 20 4
0000e0 fd a3 e1 00 05 0b f3 19 27 c0 1f fd 19 2d fd 20
       -3 -93 -31 0 5 11 -13 25 39 -64 31 -3 25 45 -3 32
0000f0 35 0f 81 19 e9 d3 17 0a fb f9 e9 d9 31 05 17 14
       53 15 -127 25 -23 -45 23 10 -5 -7 -23 -39 49 5 23 20

fuse_attr_67 i1 [1, 5, 5, 240]
000000 10 17 16 07 04 15 09 03 fd 14 f9 0c f9 ef 00 f9
       16 23 22 7 4 21 9 3 -3 20 -7 12 -7 -17 0 -7
000010 02 09 f3 09 0d 01 1b fd ed 07 09 07 06 fe 10 fc
       2 9 -13 9 13 1 27 -3 -19 7 9 7 6 -2 16 -4
000020 0d 01 f1 02 fc ef 0c e5 f4 13 02 0c f6 f6 06 01
       13 1 -15 2 -4 -17 12 -27 -12 19 2 12 -10 -10 6 1
000030 06 f2 0d 00 0d 0d f0 f6 e8 ff 04 0a 0f 0a 0a fc
       6 -14 13 0 13 13 -16 -10 -24 -1 4 10 15 10 10 -4
000040 f6 fe 06 00 f4 10 12 f4 ec 0f 09 fb 09 fb fd 06
       -10 -2 6 0 -12 16 18 -12 -20 15 9 -5 9 -5 -3 6
000050 0b 00 f6 07 08 f7 15 fa fd f5 f4 08 05 04 fa 14
       11 0 -10 7 8 -9 21 -6 -3 -11 -12 8 5 4 -6 20
000060 11 1c 01 01 03 f9 00 11 12 fa 02 f6 01 09 f7 ee
       17 28 1 1 3 -7 0 17 18 -6 2 -10 1 9 -9 -18
000070 18 11 0b 11 fe 1e f3 fd f2 0c 01 04 00 f5 04 0d
       24 17 11 17 -2 30 -13 -3 -14 12 1 4 0 -11 4 13
000080 fe 02 fc f8 f3 f8 fb fa 07 fe 0c 06 04 f7 f5 01
       -2 2 -4 -8 -13 -8 -5 -6 7 -2 12 6 4 -9 -11 1
000090 f0 0d 18 08 ef e0 14 26 f3 04 11 49 28 fc 16 02
       -16 13 24 8 -17 -32 20 38 -13 4 17 73 40 -4 22 2
0000a0 33 02 ed 23 ef de 23 ee 00 e0 1d 04 fc f3 24 07
       51 2 -19 35 -17 -34 35 -18 0 -32 29 4 -4 -13 36 7
0000b0 eb f9 ef 0b e2 21 02 df f3 eb e5 d1 e6 ea 04 f9
       -21 -7 -17 11 -30 33 2 -33 -13 -21 -27 -47 -26 -22 4 -7
0000c0 e6 b5 11 c0 ae 0c 11 f2 fb 0f c9 da 12 06 10 e3
       -26 -75 17 -64 -82 12 17 -14 -5 15 -55 -38 18 6 16 -29
0000d0 30 f7 f3 24 05 2b d5 fa 22 d7 f2 de eb fd f7 eb
       48 -9 -13 36 5 43 -43 -6 34 -41 -14 -34 -21 -3 -9 -21
0000e0 19 00 03 20 fb 23 3b ea fc c9 fc c3 13 f6 b5 f9
       25 0 3 32 -5 35 59 -22 -4 -55 -4 -61 19 -10 -75 -7
0000f0 07 0e 00 03 fd f2 f7 06 f9 fe f6 01 fe fd ff 11
       7 14 0 3 -3 -14 -9 6 -7 -2 -10 1 -2 -3 -1 17

fuse_attr_59 i1 [40, 1, 1, 240]
000000 4f 56 51 22 0f 24 03 eb 38 03 d8 08 cf 2d f0 fa
       79 86 81 34 15 36 3 -21 56 3 -40 8 -49 45 -16 -6
000010 d5 19 d0 e4 20 50 14 e1 33 d9 08 f0 03 c5 f3 c4
       -43 25 -48 -28 32 80 20 -31 51 -39 8 -16 3 -59 -13 -60
000020 38 44 ce 10 21 17 0e d5 14 1d e2 fe 9b f7 03 ff
       56 68 -50 16 33 23 14 -43 20 29 -30 -2 -101 -9 3 -1
000030 fc e8 14 00 fc 01 49 b6 b9 3e ab 56 9e 9f 2b 06
       -4 -24 20 0 -4 1 73 -74 -71 62 -85 86 -98 -97 43 6
000040 b0 b8 9a 27 fc e8 d0 00 de ff 09 e9 f9 e2 1e f5
       -80 -72 -102 39 -4 -24 -48 0 -34 -1 9 -23 -7 -30 30 -11
000050 db fc c4 ef f5 9e 1a d3 25 33 7f 47 27 cd 26 f2
       -37 -4 -60 -17 -11 -98 26 -45 37 51 127 71 39 -51 38 -14
000060 24 18 45 cc 58 3b f7 f0 01 f4 17 ce e7 56 f9 7f
       36 24 69 -52 88 59 -9 -16 1 -12 23 -50 -25 86 -7 127
000070 02 37 0a ea eb fd d7 35 bc 38 26 fb c3 0e 34 2b
       2 55 10 -22 -21 -3 -41 53 -68 56 38 -5 -61 14 52 43
000080 bf 46 30 df 20 01 0a 02 f7 f4 e2 cb 3e bf bd f1
       -65 70 48 -33 32 1 10 2 -9 -12 -30 -53 62 -65 -67 -15
000090 26 22 06 bf d0 f6 cb 20 d6 15 3b e8 ff 2c d9 fa
       38 34 6 -65 -48 -10 -53 32 -42 21 59 -24 -1 44 -39 -6
0000a0 ef 1a fd 03 25 18 17 09 12 d0 11 da f0 0f 15 d4
       -17 26 -3 3 37 24 23 9 18 -48 17 -38 -16 15 21 -44
0000b0 da e8 04 02 ff 08 03 20 ff 07 02 08 1f 25 22 f0
       -38 -24 4 2 -1 8 3 32 -1 7 2 8 31 37 34 -16
0000c0 31 df d2 24 ff 00 00 00 00 00 00 00 00 00 00 00
       49 -33 -46 36 -1 0 0 0 0 0 0 0 0 0 0 0
0000d0 00 00 00 00 00 00 00 00 00 00 00 00 00 00 00 00
       0 0 0 0 0 0 0 0 0 0 0 0 0 0 0 0
0000e0 00 00 00 00 00 00 00 00 00 00 00 00 00 00 00 00
       0 0 0 0 0 0 0 0 0 0 0 0 0 0 0 0
0000f0 a0 a8 12 1a ca da 3e 87 31 f2 81 e3 fc 22 1a ec
       -96 -88 18 26 -54 -38 62 -121 49 -14 -127 -29 -4 34 26 -20

fuse_attr_40 i1 [1, 3, 3, 48]
000000 02 08 02 f1 ec 77 0a 71 ec 08 f8 09 03 04 f2 d9
       2 8 2 -15 -20 119 10 113 -20 8 -8 9 3 4 -14 -39
000010 d3 e9 f7 ef 02 2b 2a fb ff ea 18 ff 05 ff d5 25
       -45 -23 -9 -17 2 43 42 -5 -1 -22 24 -1 5 -1 -43 37
000020 ef f9 f4 11 ef ff ee 2c 2d f1 00 fc 81 ec e4 f4
       -17 -7 -12 17 -17 -1 -18 44 45 -15 0 -4 -127 -20 -28 -12
000030 9b 7f f8 da 2d 19 0f fb 08 e3 d7 f4 f2 f3 1e de
       -101 127 -8 -38 45 25 15 -5 8 -29 -41 -12 -14 -13 30 -34
000040 81 a5 1b e4 be 7f f1 91 12 f6 f1 34 c3 0b 81 f5
       -127 -91 27 -28 -66 127 -15 -111 18 -10 -15 52 -61 11 -127 -11
000050 e1 62 e0 df a6 e5 02 71 36 d6 c0 d5 d9 81 bf fa
       -31 98 -32 -33 -90 -27 2 113 54 -42 -64 -43 -39 -127 -65 -6
000060 06 0c 0c f1 f9 78 ff 81 f1 f9 03 db fa 03 12 d9
       6 12 12 -15 -7 120 -1 -127 -15 -7 3 -37 -6 3 18 -39
000070 e3 e7 fb f1 00 0e 29 16 03 fa f7 f4 14 d5 f4 d3
       -29 -25 -5 -15 0 14 41 22 3 -6 -9 -12 20 -43 -12 -45
000080 06 f3 00 03 ed 06 eb 06 2d ed 07 06 73 f8 18 e2
       6 -13 0 3 -19 6 -21 6 45 -19 7 6 115 -8 24 -30
000090 81 b9 fc fa 3f 7f 1a 08 cc 09 fb 16 0f 0a ed 46
       -127 -71 -4 -6 63 127 26 8 -52 9 -5 22 15 10 -19 70
0000a0 07 f1 c9 01 c4 f3 01 ab e4 06 7f e1 35 2a 01 7f
       7 -15 -55 1 -60 -13 1 -85 -28 6 127 -31 53 42 1 127
0000b0 c3 bc 05 46 ce 02 0d f6 2b da e4 81 09 69 ea fd
       -61 -68 5 70 -50 2 13 -10 43 -38 -28 -127 9 105 -22 -3
0000c0 60 db 81 7f 81 be 7f fa 7f 7f 7f 7f 7f 7f 7f 7f
       96 -37 -127 127 -127 -66 127 -6 127 127 127 127 127 127 127 127
0000d0 08 df 7f 7f 7f d2 81 7f 81 7f fd 81 62 7f 14 ed
       8 -33 127 127 127 -46 -127 127 -127 127 -3 -127 98 127 20 -19
0000e0 7f 0c 7f 81 7f 7f 7f 06 7f 7f c3 2c 26 14 60 7f
       127 12 127 -127 127 127 127 6 127 127 -61 44 38 20 96 127
0000f0 ab b4 ed 0b 37 39 10 02 e6 be d7 12 12 0e 37 42
       -85 -76 -19 11 55 57 16 2 -26 -66 -41 18 18 14 55 66

fuse_attr_44 i1 [16, 1, 1, 48]
000000 4e 5e 14 a5 31 5f b1 e0 f6 16 2c 52 b2 a5 e8 9f
       78 94 20 -91 49 95 -79 -32 -10 22 44 82 -78 -91 -24 -97
000010 6a 15 da 98 7f 00 ce ec 2b 01 c5 0c 23 22 fa e2
       106 21 -38 -104 127 0 -50 -20 43 1 -59 12 35 34 -6 -30
000020 24 fb 68 c5 9c 2f 1a d6 f3 b4 f9 e6 0f 35 fc d7
       36 -5 104 -59 -100 47 26 -42 -13 -76 -7 -26 15 53 -4 -41
000030 f2 3b 13 dc 36 0f b4 bc e4 17 fe 08 3a 22 4a 51
       -14 59 19 -36 54 15 -76 -68 -28 23 -2 8 58 34 74 81
000040 d9 17 d0 27 f3 00 96 1a d0 2a 47 b7 81 03 28 f5
       -39 23 -48 39 -13 0 -106 26 -48 42 71 -73 -127 3 40 -11
000050 fc d4 0a 49 bd 14 1b 05 fe a6 ee 64 36 1d fe b5
       -4 -44 10 73 -67 20 27 5 -2 -90 -18 100 54 29 -2 -75
000060 b3 98 e2 20 3b da 24 c1 05 a9 7f e2 2a 28 01 f8
       -77 -104 -30 32 59 -38 36 -63 5 -87 127 -30 42 40 1 -8
000070 17 e7 db 3c 0d 0b dc e2 f4 e8 2f 3a 3e bb 34 20
       23 -25 -37 60 13 11 -36 -30 -12 -24 47 58 62 -69 52 32
000080 52 bb 11 5c 12 34 15 16 e8 d6 bf 25 6d da c8 f9
       82 -69 17 92 18 52 21 22 -24 -42 -65 37 109 -38 -56 -7
000090 06 40 24 f0 28 0c df 21 37 ef 21 2b 06 fe 0e 25
       6 64 36 -16 40 12 -33 33 55 -17 33 43 6 -2 14 37
0000a0 37 0c ad f0 fc 07 e1 f6 25 53 f1 ee f9 4e 4b 81
       55 12 -83 -16 -4 7 -31 -10 37 83 -15 -18 -7 78 75 -127
0000b0 d2 24 c5 ff eb e8 18 bc ee cd b1 05 29 02 fa 10
       -46 36 -59 -1 -21 -24 24 -68 -18 -51 -79 5 41 2 -6 16
0000c0 ff 36 9e 57 13 13 61 f1 fd ee 0d 0d 1a fc 2a 0d
       -1 54 -98 87 19 19 97 -15 -3 -18 13 13 26 -4 42 13
0000d0 2a 81 3b 2d 25 86 d6 e7 e5 b8 fa f6 ee 14 02 e7
       42 -127 59 45 37 -122 -42 -25 -27 -72 -6 -10 -18 20 2 -25
0000e0 ea dd 09 07 4c 1e f5 f7 d1 0a dd bd fc f8 14 5d
       -22 -35 9 7 76 30 -11 -9 -47 10 -35 -67 -4 -8 20 93
0000f0 19 3e 8d 43 f9 36 55 74 3b 77 d8 24 18 ed 7f b7
       25 62 -115 67 -7 54 85 116 59 119 -40 36 24 -19 127 -73

fuse_attr_46 i1 [1, 7, 7, 48]
000000 ff 05 04 04 00 01 03 01 ff 01 01 00 00 00 ff fc
       -1 5 4 4 0 1 3 1 -1 1 1 0 0 0 -1 -4
000010 fa fd 00 ff 04 06 04 fe 01 ff 02 05 f6 03 ff 04
       -6 -3 0 -1 4 6 4 -2 1 -1 2 5 -10 3 -1 4
000020 fd fd 03 f9 ff 07 fb f9 fd fb 03 03 01 fd 00 03
       -3 -3 3 -7 -1 7 -5 -7 -3 -5 3 3 1 -3 0 3
000030 f9 08 08 03 02 09 04 f6 00 03 01 04 06 09 03 fb
       -7 8 8 3 2 9 4 -10 0 3 1 4 6 9 3 -5
000040 04 01 03 03 09 09 09 ff 00 05 00 0b ff 00 fd fc
       4 1 3 3 9 9 9 -1 0 5 0 11 -1 0 -3 -4
000050 04 0a fd 05 fc fd 0b 04 fe fd f2 02 05 05 05 01
       4 10 -3 5 -4 -3 11 4 -2 -3 -14 2 5 5 5 1
000060 0b fc fa fa 00 fc fe 06 01 fc fb fd fa fc 00 04
       11 -4 -6 -6 0 -4 -2 6 1 -4 -5 -3 -6 -4 0 4
000070 fe fb 01 00 f7 01 fd 02 03 fe 00 f7 05 fb 05 ff
       -2 -5 1 0 -9 1 -3 2 3 -2 0 -9 5 -5 5 -1
000080 ff 02 07 fd fb 00 03 00 02 fd 04 fa f7 01 fd 03
       -1 2 7 -3 -5 0 3 0 2 -3 4 -6 -9 1 -3 3
000090 10 f4 f6 fb f9 f8 f4 0e f5 fd f7 ff fb f7 f8 08
       16 -12 -10 -5 -7 -8 -12 14 -11 -3 -9 -1 -5 -9 -8 8
0000a0 00 f5 fc 07 f2 f5 f6 09 06 f9 04 f4 0b f7 02 07
       0 -11 -4 7 -14 -11 -10 9 6 -7 4 -12 11 -9 2 7
0000b0 fc f5 09 f9 03 06 10 01 02 f5 07 f0 ef 00 f8 0c
       -4 -11 9 -7 3 6 16 1 2 -11 7 -16 -17 0 -8 12
0000c0 08 fa fb f6 fb fc fe 06 fa fd 00 00 fd fc f0 04
       8 -6 -5 -10 -5 -4 -2 6 -6 -3 0 0 -3 -4 -16 4
0000d0 fc fe f7 06 f9 f4 fb 03 03 fb fc f4 03 ff 04 02
       -4 -2 -9 6 -7 -12 -5 3 3 -5 -4 -12 3 -1 4 2
0000e0 00 ff 03 02 00 09 09 06 f7 f8 01 f5 f7 fe fe 05
       0 -1 3 2 0 9 9 6 -9 -8 1 -11 -9 -2 -2 5
0000f0 fc 00 01 04 01 00 01 fc 03 05 00 ff 08 ff 02 fe
       -4 0 1 4 1 0 1 -4 3 5 0 -1 8 -1 2 -2

fuse_attr_33 i1 [16, 3, 3, 3]
000000 fb f9 0d f9 01 0a ff 10 ef 56 d0 d8 d3 2c 05 85
       -5 -7 13 -7 1 10 -1 16 -17 86 -48 -40 -45 44 5 -123
000010 52 2a 46 c4 ee cb 36 0c 81 65 22 02 00 fc ed 15
       82 42 70 -60 -18 -53 54 12 -127 101 34 2 0 -4 -19 21
000020 02 fe 1c d4 f4 21 07 fb 16 f3 0f e2 95 fb 12 f3
       2 -2 28 -44 -12 33 7 -5 22 -13 15 -30 -107 -5 18 -13
000030 16 ff e2 22 b4 81 5a 12 b9 3c d6 0d 36 f2 24 81
       22 -1 -30 34 -76 -127 90 18 -71 60 -42 13 54 -14 36 -127
000040 02 03 56 3a f3 77 49 b3 af 00 f9 54 10 d5 70 28
       2 3 86 58 -13 119 73 -77 -81 0 -7 84 16 -43 112 40
000050 9f f8 fc fb 18 23 0d ea e5 f7 07 02 0a 57 7a 33
       -97 -8 -4 -5 24 35 13 -22 -27 -9 7 2 10 87 122 51
000060 a9 81 c2 fc ef 03 56 73 31 ae 9d cb 10 c1 29 20
       -87 -127 -62 -4 -17 3 86 115 49 -82 -99 -53 16 -63 41 32
000070 b2 36 14 bc 2a 1f 9b 41 3c 81 42 23 93 44 12 c0
       -78 54 20 -68 42 31 -101 65 60 -127 66 35 -109 68 18 -64
000080 2b 22 ad 34 09 be 37 00 04 01 15 23 06 0d 17 02
       43 34 -83 52 9 -66 55 0 4 1 21 35 6 13 23 2
000090 f5 e3 f5 a7 81 d6 b8 96 de 10 15 09 41 5f 22 3b
       -11 -29 -11 -89 -127 -42 -72 -106 -34 16 21 9 65 95 34 59
0000a0 4e 1e 23 13 00 fa e4 08 fe d4 01 3f 53 19 a4 81
       78 30 35 19 0 -6 -28 8 -2 -44 1 63 83 25 -92 -127
0000b0 d9 fe cd e6 4e 4c 1b bf b1 e9 f2 c8 dc fe e9 f0
       -39 -2 -51 -26 78 76 27 -65 -79 -23 -14 -56 -36 -2 -23 -16
0000c0 0d ec 0e 07 e1 01 12 27 10 5d 79 37 5e 7f 3e f5
       13 -20 14 7 -31 1 18 39 16 93 121 55 94 127 62 -11
0000d0 f6 fd 94 8a bf 99 9b c0 00 00 00 00 00 00 00 00
       -10 -3 -108 -118 -65 -103 -101 -64 0 0 0 0 0 0 0 0
0000e0 00 00 00 00 00 00 00 00 00 00 00 00 00 00 00 00
       0 0 0 0 0 0 0 0 0 0 0 0 0 0 0 0
0000f0 00 00 00 fa fe 02 f1 f5 f4 0a 1f 03 01 10 01 c0
       0 0 0 -6 -2 2 -15 -11 -12 10 31 3 1 16 1 -64

fuse_attr_48 i1 [144, 1, 1, 24]
000000 45 e1 ea 18 0d 3b 3a 19 e4 01 ff 32 e5 d9 fd 4d
       69 -31 -22 24 13 59 58 25 -28 1 -1 50 -27 -39 -3 77
000010 c4 ec f8 60 b5 23 7f 38 d9 7f e3 db 1b fc de b3
       -60 -20 -8 96 -75 35 127 56 -39 127 -29 -37 27 -4 -34 -77
000020 fd 33 cc 0f 43 da 27 15 22 e9 48 4f 10 3b 19 c9
       -3 51 -52 15 67 -38 39 21 34 -23 72 79 16 59 25 -55
000030 17 06 e5 0c 09 21 1b 5a 1d 09 00 e5 16 1c eb 36
       23 6 -27 12 9 33 27 90 29 9 0 -27 22 28 -21 54
000040 af cd d3 02 32 19 81 0a 62 f5 fe 09 f5 20 f8 d1
       -81 -51 -45 2 50 25 -127 10 98 -11 -2 9 -11 32 -8 -47
000050 52 01 f6 12 d6 05 07 0b 02 fb f5 16 f5 12 fb 81
       82 1 -10 18 -42 5 7 11 2 -5 -11 22 -11 18 -5 -127
000060 93 25 ff ef 3d 37 11 0c ee f0 e4 07 bf fe 09 10
       -109 37 -1 -17 61 55 17 12 -18 -16 -28 7 -65 -2 9 16
000070 07 fe 0a ff 1c 2e 04 7f 2b 37 d4 79 19 24 81 2c
       7 -2 10 -1 28 46 4 127 43 55 -44 121 25 36 -127 44
000080 be 43 0e 68 e0 ba 86 d5 25 a2 af b1 a8 af a4 15
       -66 67 14 104 -32 -70 -122 -43 37 -94 -81 -79 -88 -81 -92 21
000090 19 88 fc d5 3a 7f 6f fd c4 e0 e5 c0 47 13 ca 30
       25 -120 -4 -43 58 127 111 -3 -60 -32 -27 -64 71 19 -54 48
0000a0 0e db 5c 2e d6 bf f8 f8 07 e0 f0 e4 12 f5 c9 05
       14 -37 92 46 -42 -65 -8 -8 7 -32 -16 -28 18 -11 -55 5
0000b0 14 b4 14 0b d6 fc 14 7f 06 da 01 df c2 ce 14 1e
       20 -76 20 11 -42 -4 20 127 6 -38 1 -33 -62 -50 20 30
0000c0 2a 00 e1 cb 12 13 fc 7f 3c f4 07 16 b3 2e cf aa
       42 0 -31 -53 18 19 -4 127 60 -12 7 22 -77 46 -49 -86
0000d0 e0 ec fd 23 da 64 b8 1c ef ea dd e0 c2 11 b8 ff
       -32 -20 -3 35 -38 100 -72 28 -17 -22 -35 -32 -62 17 -72 -1
0000e0 d6 03 eb c9 7f e6 f2 37 22 95 f0 52 ea 09 19 07
       -42 3 -21 -55 127 -26 -14 55 34 -107 -16 82 -22 9 25 7
0000f0 0d 3e 04 e3 cc 7f 2c 1f e5 24 d9 e3 f1 e8 1f cc
       13 62 4 -29 -52 127 44 31 -27 36 -39 -29 -15 -24 31 -52

fuse_attr_69 i1 [480, 1, 1, 96]
000000 1f 8a 34 29 ac fb 49 ec 46 f8 0b 3d 1a 58 01 16
       31 -118 52 41 -84 -5 73 -20 70 -8 11 61 26 88 1 22
000010 69 2f fe dc ff 13 ef 3b cd 12 ef ba 0a 11 22 a6
       105 47 -2 -36 -1 19 -17 59 -51 18 -17 -70 10 17 34 -90
000020 f0 1e 3b 16 d9 f5 f1 8b 0d 2e 21 49 11 e5 ee d6
       -16 30 59 22 -39 -11 -15 -117 13 46 33 73 17 -27 -18 -42
000030 e5 35 2e c0 3c fe 93 c7 07 cf 24 db eb d8 2e c9
       -27 53 46 -64 60 -2 -109 -57 7 -49 36 -37 -21 -40 46 -55
000040 04 25 e4 d5 c6 ff f5 09 14 f3 f2 eb 22 37 f5 65
       4 37 -28 -43 -58 -1 -11 9 20 -13 -14 -21 34 55 -11 101
000050 1d de 18 e7 58 e4 e0 df 7f fe 6f 30 11 1e ce f3
       29 -34 24 -25 88 -28 -32 -33 127 -2 111 48 17 30 -50 -13
000060 44 17 09 d7 11 eb 23 ed fc 5b 11 fa 5e e5 57 00
       68 23 9 -41 17 -21 35 -19 -4 91 17 -6 94 -27 87 0
000070 c6 81 1c b9 0a 12 fb 02 6d f9 4f 12 ad 45 14 50
       -58 -127 28 -71 10 18 -5 2 109 -7 79 18 -83 69 20 80
000080 da fa 25 33 36 0e cf 4d 19 12 49 fe 97 13 4b d6
       -38 -6 37 51 54 14 -49 77 25 18 73 -2 -105 19 75 -42
000090 e1 09 f8 55 38 20 e0 00 1a e6 9f 15 0f 15 f3 f4
       -31 9 -8 85 56 32 -32 0 26 -26 -97 21 15 21 -13 -12
0000a0 d4 3c e6 b2 29 19 9f fa f4 f1 52 17 d9 cf dd c9
       -44 60 -26 -78 41 25 -97 -6 -12 -15 82 23 -39 -49 -35 -55
0000b0 16 15 04 2c 08 c2 e7 45 f2 1c ab dc f0 18 0f 11
       22 21 4 44 8 -62 -25 69 -14 28 -85 -36 -16 24 15 17
0000c0 b9 e7 d2 03 46 fa 1c 13 1c 23 df 8f e0 3b 3a 07
       -71 -25 -46 3 70 -6 28 19 28 35 -33 -113 -32 59 58 7
0000d0 e0 2d de fe f2 cc 0e 26 b7 17 19 1f 19 1a 43 c0
       -32 45 -34 -2 -14 -52 14 38 -73 23 25 31 25 26 67 -64
0000e0 3b 21 9c b6 c8 00 d9 13 1f 02 fe fd e0 1c c1 be
       59 33 -100 -74 -56 0 -39 19 31 2 -2 -3 -32 28 -63 -66
0000f0 7f f9 28 f2 f7 cd 17 d0 bd 0b 08 f4 1b 82 ee d0
       127 -7 40 -14 -9 -51 23 -48 -67 11 8 -12 27 -126 -18 -48

fuse_attr_36 i1 [48, 1, 1, 8]
000000 fd a1 13 14 e8 74 dd 7f e5 56 d9 ff 2b 8f 12 81
       -3 -95 19 20 -24 116 -35 127 -27 86 -39 -1 43 -113 18 -127
000010 7f dc 09 9b 02 21 d5 1c 0b e9 85 0f df 23 7f 02
       127 -36 9 -101 2 33 -43 28 11 -23 -123 15 -33 35 127 2
000020 81 17 96 88 e4 00 60 51 1a fe 7f 20 18 e5 8e e0
       -127 23 -106 -120 -28 0 96 81 26 -2 127 32 24 -27 -114 -32
000030 79 02 f9 7f f3 f8 13 e0 91 15 7d 99 36 c7 81 31
       121 2 -7 127 -13 -8 19 -32 -111 21 125 -103 54 -57 -127 49
000040 5f 21 eb 81 07 d8 21 e7 ef c4 05 ed fa 4f fc 81
       95 33 -21 -127 7 -40 33 -25 -17 -60 5 -19 -6 79 -4 -127
000050 14 39 fc 1b 05 af 05 7f 7f 01 f4 7b f1 f5 01 fd
       20 57 -4 27 5 -81 5 127 127 1 -12 123 -15 -11 1 -3
000060 81 01 12 84 0d 09 f5 1b 81 01 fb 79 ff 03 fc fe
       -127 1 18 -124 13 9 -11 27 -127 1 -5 121 -1 3 -4 -2
000070 04 fc 7f fa fe 0c 7c 07 f5 81 f6 f9 e4 84 09 ee
       4 -4 127 -6 -2 12 124 7 -11 -127 -10 -7 -28 -124 9 -18
000080 fd 58 14 fa 81 1a f0 f4 02 ff 84 fb ff fc 81 ff
       -3 88 20 -6 -127 26 -16 -12 2 -1 -124 -5 -1 -4 -127 -1
000090 9f 2a 14 81 1b da 0d 15 01 95 2c 3a d9 7f f2 6d
       -97 42 20 -127 27 -38 13 21 1 -107 44 58 -39 127 -14 109
0000a0 82 f0 2e 81 12 26 fe 33 15 f8 81 f4 cf 1e 74 02
       -126 -16 46 -127 18 38 -2 51 21 -8 -127 -12 -49 30 116 2
0000b0 f6 4e bc ef 81 32 44 07 7f fb ec 8c f5 01 e0 00
       -10 78 -68 -17 -127 50 68 7 127 -5 -20 -116 -11 1 -32 0
0000c0 0b 59 fe 0c 7f 7c 04 15 ff 43 ff ec 81 07 00 ef
       11 89 -2 12 127 124 4 21 -1 67 -1 -20 -127 7 0 -17
0000d0 fa 81 f3 f6 f2 86 0e fd 02 7f 17 f6 cb 65 eb fa
       -6 -127 -13 -10 -14 -122 14 -3 2 127 23 -10 -53 101 -21 -6
0000e0 8c e8 0c 7f 10 21 f0 18 01 81 f4 f5 ee 8a 0f f5
       -116 -24 12 127 16 33 -16 24 1 -127 -12 -11 -18 -118 15 -11
0000f0 fa 81 f5 fe 35 9e 0e fc 03 70 fe 11 50 7f f8 13
       -6 -127 -11 -2 53 -98 14 -4 3 112 -2 17 80 127 -8 19

fuse_attr_70 i1 [1, 3, 3, 480]
000000 87 02 47 37 23 1d d1 32 df dd e6 42 d7 38 0e e4
       -121 2 71 55 35 29 -47 50 -33 -35 -26 66 -41 56 14 -28
000010 ed 3b 91 ee b2 18 4a b6 41 f4 22 f1 47 81 2c b1
       -19 59 -111 -18 -78 24 74 -74 65 -12 34 -15 71 -127 44 -79
000020 e2 b6 99 54 2e ba 22 25 81 11 ac ea f5 3c df e2
       -30 -74 -103 84 46 -70 34 37 -127 17 -84 -22 -11 60 -33 -30
000030 04 0f d5 11 c2 14 ee 56 16 bc 03 15 3a 37 40 06
       4 15 -43 17 -62 20 -18 86 22 -68 3 21 58 55 64 6
000040 db 63 b1 3b 60 0e 12 0f d2 82 fe f1 19 76 11 27
       -37 99 -79 59 96 14 18 15 -46 -126 -2 -15 25 118 17 39
000050 c6 e0 fb c8 22 16 10 1b 29 1a 4a 18 da f2 25 30
       -58 -32 -5 -56 34 22 16 27 41 26 74 24 -38 -14 37 48
000060 06 62 fc fd 2e f0 e3 6b e5 e5 73 2d 36 49 d3 5e
       6 98 -4 -3 46 -16 -29 107 -27 -27 115 45 54 73 -45 94
000070 3c 6d 2d 04 99 7f 81 1c 9f c6 97 90 1f 03 f4 25
       60 109 45 4 -103 127 -127 28 -97 -58 -105 -112 31 3 -12 37
000080 07 a1 ec 16 0e 1d fa 8c f5 f2 1f 75 9f 89 be e6
       7 -95 -20 22 14 29 -6 -116 -11 -14 31 117 -97 -119 -66 -26
000090 e4 82 fa 2e bf db 59 1c 46 c0 00 25 2b 02 1b ad
       -28 -126 -6 46 -65 -37 89 28 70 -64 0 37 43 2 27 -83
0000a0 0f f2 06 eb 26 4c f5 84 50 05 09 df 41 06 36 39
       15 -14 6 -21 38 76 -11 -124 80 5 9 -33 65 6 54 57
0000b0 81 15 13 03 dc 07 83 03 c5 28 f4 fd 29 00 2a 14
       -127 21 19 3 -36 7 -125 3 -59 40 -12 -3 41 0 42 20
0000c0 e4 f2 18 b3 3c 31 e4 26 df fa 07 d6 4f 01 f5 e2
       -28 -14 24 -77 60 49 -28 38 -33 -6 7 -42 79 1 -11 -30
0000d0 0e 43 10 8c ef 38 15 28 16 d6 27 e1 26 36 2f cc
       14 67 16 -116 -17 56 21 40 22 -42 39 -31 38 54 47 -52
0000e0 3d 4b ef 04 d8 15 0b 12 07 92 17 24 3d f7 f7 10
       61 75 -17 4 -40 21 11 18 7 -110 23 36 61 -9 -9 16
0000f0 d5 81 f0 76 08 39 35 0f d1 72 15 2c 1d d0 f2 2a
       -43 -127 -16 118 8 57 53 15 -47 114 21 44 29 -48 -14 42
